ex_05_implicit_models_recognition/code/output/model_best.pt (torch, 72226 bytes, 11 tensors)

main.0.weight f4 [64, 3]
000000 bc 66 28 bf 9b d1 cd bd 19 b3 f6 3e c5 a7 09 bd
       -0.6578176 -0.10049745 0.48183516 -0.033607263
000010 04 83 0b 3e f1 a1 e9 be e7 ad 3a be 9a 68 1b 3f
       0.13624197 -0.45631364 -0.18230401 0.60706484
000020 46 f0 f5 be fd 1a 3f be 46 cb 9c 3d f1 35 9e be
       -0.48034877 -0.18662639 0.07655959 -0.3090053
000030 85 f1 69 be 93 db 96 be d6 63 24 bf 07 0f 5f be
       -0.22846039 -0.29464397 -0.6421484 -0.21783076
000040 bb bd 23 3f a8 88 2b bf 7a d2 40 3e 25 c0 6d bd
       0.6396138 -0.67005396 0.1883029 -0.05804457
000050 48 be 28 bf 7f 6d 7e 3e 5c a6 1d bf 1e da cf 3e
       -0.65915346 0.24846457 -0.6158197 0.40596098
000060 03 ac ea be 66 f9 e3 be 01 80 95 3e 4f 82 b3 be
       -0.4583436 -0.44526213 0.29199222 -0.35060355
000070 85 ba ba 3e 92 b2 35 bf 15 04 9c 3e c1 35 95 be
       0.36470428 -0.709756 0.30471864 -0.29142573
000080 1a 72 23 bf 85 3d 37 3e 90 d9 8a 3d 0b 2e 1f 3f
       -0.6384598 0.17894562 0.06779778 0.6217963
000090 42 db ba 3e 66 bb 0d be d0 65 1a 3d cc 4d b3 be
       0.36495405 -0.13841018 0.037694752 -0.35020292
0000a0 6c 5d e5 3e 92 87 d5 3e 78 c2 ef be 9c 11 2d be
       0.44797838 0.41704994 -0.46828055 -0.16901249
0000b0 6c 1e 2e 3e 80 31 6f bd 2c 52 04 3f e1 db 5e 3c
       0.17003793 -0.058396816 0.51687884 0.013602228
0000c0 54 58 0e bf 72 2d f2 be 9f eb b8 be 5b f4 ec be
       -0.5560353 -0.47300297 -0.36117265 -0.46280178
0000d0 70 db 72 be 83 3e 7c bd c8 b1 b6 be 1d 2b 07 3f
       -0.23716521 -0.061583053 -0.3568251 0.5280016
0000e0 ef 79 66 3e f6 da a0 3e 4a 09 eb 3e 0b c2 55 be
       0.22507451 0.31417054 0.45905524 -0.20874803
0000f0 b9 3f 26 3e 86 76 f5 3e 10 20 5f 3e fc f4 3a bf
       0.16235246 0.4794199 0.21789575 -0.73030066
000100 ba ab 31 be 60 97 2d be 69 76 30 3e 03 35 fa 3e
       -0.17350665 -0.16952276 0.1723267 0.4886857
000110 6d 47 a1 bd b3 45 3e 3d 60 1a 75 bc 8b 4a ad 3e
       -0.078749515 0.04645319 -0.014959902 0.33845934
000120 f7 a6 06 bf 71 de 29 bd e5 1c 28 bf eb c8 da 3e
       -0.5259852 -0.041471902 -0.6566909 0.42731413
000130 a7 21 db be 7a 63 92 3e d0 84 c7 3d a0 dd 2c bd
       -0.42799112 0.2859152 0.09742129 -0.042203546
000140 0c b2 fc be 0f 01 3d 3e c6 f2 d9 be 2d fe 40 3f
       -0.4935459 0.18457435 -0.42568034 0.7538784
000150 4e c5 bd bd dd 5a c0 be 04 4c 5a be ba 75 18 3f
       -0.092661485 -0.37569323 -0.2131806 0.59554636
000160 79 a3 33 bd a6 df 29 3b ea e1 b2 be 20 4f d1 3d
       -0.04385707 0.0025920658 -0.34937984 0.1022017
000170 9c 9f f5 bd 84 ac 3b bf 65 39 19 3f 0e 47 22 3f
       -0.11993334 -0.7331011 0.598532 0.6338967
000180 18 6f 07 3f 08 7b 39 3d 9e e2 22 3f 22 59 bc 3e
       0.5290389 0.045283347 0.6362704 0.36786753
000190 41 79 d7 3d 28 91 26 3f 6d d6 a0 be d8 b8 bd 3d
       0.10521174 0.6506524 -0.31413594 0.09263772
0001a0 26 96 f3 3e a8 66 e0 3d 4f 10 00 bf 94 94 36 bf
       0.47575492 0.1095708 -0.50024885 -0.7132046
0001b0 2f c9 97 3e 30 42 e9 3e 2a 96 29 bf 2d 17 08 bf
       0.29645678 0.4555831 -0.6624476 -0.53160363
0001c0 1f b9 04 3f 94 b4 2a bf 3d 14 06 3f f6 d5 d0 be
       0.5184497 -0.6668179 0.5237463 -0.4078824
0001d0 68 b8 17 3f 86 22 cd be 0e c8 b5 be a8 4c c2 3e
       0.59265757 -0.40065402 -0.35504192 0.3794911
0001e0 ae 89 43 bd f3 14 61 bd 2d 90 2e 3f f5 4c b6 be
       -0.047738723 -0.05495162 0.68188745 -0.3560559
0001f0 69 65 87 bd 93 72 57 3e a8 1a b2 3e 73 5a 19 bf
       -0.06611139 0.210398 0.34785962 -0.5990364
000200 db 53 de be 0d b9 57 be 04 e4 4f 3c 4f 26 f4 be
       -0.43423352 -0.21066685 0.0126886405 -0.47685477
000210 43 e4 88 bd 79 e1 80 3d 61 47 e3 3e 77 2c ba be
       -0.066841625 0.062930055 0.44390395 -0.3636205
000220 ba 37 16 bf ef 37 20 bf a9 c8 af 3e 95 43 f1 3e
       -0.5867878 -0.6258535 0.3433278 0.47121873
000230 e6 c2 b4 be 23 a8 13 bf 0a 5c 94 3b 94 af 90 be
       -0.35304946 -0.5767843 0.0045275735 -0.28258955
000240 10 e5 28 3e 0d fe 7d be 20 4a 0a bf e8 13 cf be
       0.1649363 -0.24803944 -0.54019356 -0.40444875
000250 1d 2f ae be 97 42 af 3e 30 54 f6 3e 35 48 1e bf
       -0.3402032 0.34230492 0.48111105 -0.6182893
000260 12 a0 cc be e2 75 f4 3e 5f 6c aa be ca 86 05 bf
       -0.39965874 0.47746187 -0.33285806 -0.52158797
000270 20 1f 11 3e eb 90 fc be a5 53 a0 3e fe 3b 10 3f
       0.1417203 -0.49329314 0.31313816 0.5634154
000280 b3 c0 e7 3c 44 fa d7 3d 09 d5 00 3f 8c 92 0c 3f
       0.028290128 0.10545781 0.50325066 0.5491111
000290 10 e6 35 bf b2 84 a7 3e 4f 30 87 3e fe b7 ed 3e
       -0.7105417 0.32718426 0.26404044 0.46429437
0002a0 79 75 7f be d1 1d 9b be 1c ee aa bd b1 c8 bd 3e
       -0.24947156 -0.30296186 -0.08346197 0.37067178
0002b0 26 e7 de be 92 94 08 bf ce 0d 26 bf 42 15 b2 3e
       -0.43535727 -0.533517 -0.64864814 0.34781843
0002c0 4e 6e 0c 3f 9a 6d 16 3d 5b 5c 7b 3d 45 29 15 bf
       0.5485581 0.036725618 0.061367374 -0.582661
0002d0 88 66 e5 3e 4a 7a 0a bf 3c 46 21 bf ff f8 ed 3e
       0.44804788 -0.5409285 -0.62997794 0.4647903
0002e0 7d 2c da 3e 9d 93 9c 3e 70 cd 87 3e f2 2c c5 3e
       0.42612067 0.3058137 0.26523924 0.38510853
0002f0 6e 77 d3 3e e8 57 b9 3e 27 74 f8 be 78 36 a3 3d
       0.41302055 0.3619988 -0.48526117 0.079693735

main.0.bias f4 [64]
000000 79 8e 89 be dd 85 a1 3e 04 00 03 bd 36 a5 d5 3b
       -0.2686651 0.31547442 -0.031982437 0.006519939
000010 10 00 91 3e ca c6 a5 3e c8 26 52 bd ef 36 00 be
       0.2832036 0.32378227 -0.051306516 -0.12520956
000020 3a ec 03 be d3 ba 99 3d 7f cb bd be bc f6 0d bd
       -0.12883082 0.07506337 -0.37069318 -0.034659132
000030 32 8b f2 be 87 8e 5c 3e c6 43 09 bf ec 75 e3 3e
       -0.47371823 0.21538745 -0.5361904 0.44425905
000040 ab 25 de be 80 4b e8 3e 01 e1 0c 3f af 69 fc 3e
       -0.43388113 0.45370102 0.5503083 0.4929938
000050 fd 44 d8 3e f1 40 00 be 17 72 5e 3a 11 cf c5 3e
       0.42240134 -0.12524773 0.00084856286 0.38634542
000060 bb ad 0b bc 6e d5 f7 bb 91 20 00 bf fa ac b3 bd
       -0.008525307 -0.0075632846 -0.5004969 -0.08773227
000070 a5 ca e4 3d f7 ba e3 3e 02 d1 a3 be e8 10 c3 be
       0.11171464 0.4447858 -0.31995398 -0.38098836
000080 b1 df b3 bd 19 c8 14 be 37 13 ae 3e dc ae a0 bd
       -0.087829 -0.14529456 0.33999035 -0.07845852
000090 5d 42 3a 3e f7 64 13 3e fa 5b 4c be 37 2d 0f be
       0.18189378 0.14393984 -0.19956961 -0.13982092
0000a0 35 70 94 bc 77 8d f8 3e ac 13 89 bd 39 5a 01 3f
       -0.01811991 0.4854543 -0.06693205 0.50528294
0000b0 f7 d7 20 3e 64 39 67 3e 68 26 f1 bd b5 bf 81 bd
       0.15707384 0.22580487 -0.117749035 -0.06335393
0000c0 42 3e 66 bd 4d ba 03 3f 9b ca 15 bd 2e b1 e5 3e
       -0.056211717 0.5145615 -0.036570173 0.4486174
0000d0 bd 68 89 3e a6 a1 96 3c 15 1b e6 bd 46 27 b4 3d
       0.2683772 0.018387627 -0.11235634 0.08796553
0000e0 bd 37 ff 3e 04 9c f1 bd cc 8f 67 be f2 e4 df bc
       0.49847212 -0.11797336 -0.22613448 -0.02733085
0000f0 10 21 b7 bd ad 3f 10 bf ea 62 3d bd 58 43 0f bf
       -0.08941853 -0.5634716 -0.04623691 -0.55962133

main.2.weight f4 [64, 64]
000000 c8 1c ac bd b8 1f 72 bd 06 72 9c bd 54 8f 28 bc
       -0.08403927 -0.05911228 -0.07638936 -0.010288078
000010 4b 94 af bd e6 24 f1 bd ed 5b 89 bd 6b 04 cd bc
       -0.085732065 -0.11774616 -0.067069866 -0.02502652
000020 aa 54 04 3e 83 eb d0 bd 68 e4 93 3c c8 d9 55 bd
       0.12922922 -0.1020117 0.018053249 -0.052209646
000030 c0 52 e4 bd 9f be 04 be 88 aa bd bd 77 b1 30 bc
       -0.11148596 -0.12963341 -0.09261042 -0.010784498
000040 f7 95 0b bc 7b 98 08 bb c5 02 48 3d a3 4c 30 bd
       -0.008519641 -0.0020842839 0.048830766 -0.043041836
000050 ac f3 8f bd cd 93 99 3d f1 77 b5 3d 8a d6 32 3d
       -0.070288986 0.07498894 0.08860768 0.04366163
000060 f0 61 0a 3e fb 92 7e bc d6 26 fe 3d de 2e 9d bd
       0.13513923 -0.015537973 0.12409751 -0.07674955
000070 e1 72 c3 bd a9 77 ed bd c0 94 04 bb af e6 fb bd
       -0.09543396 -0.11595089 -0.0020230263 -0.12299859
000080 54 43 b9 3d ff c9 a3 bb 11 98 17 3d 45 cb 1d bd
       0.09046045 -0.004998445 0.037010256 -0.03852393
000090 9b bd db 3d 00 b0 c7 3d b7 28 24 3d e7 b5 c6 3d
       0.10729524 0.09750366 0.04007789 0.09702664
0000a0 fa 2c 8b 3d f9 19 9f 3d 4e 0e a8 bc 4c f6 e1 bd
       0.06795688 0.07768626 -0.020514634 -0.110333055
0000b0 ee 73 9b bd fc 5b d7 bc 33 de f1 3d 78 17 96 3c
       -0.07590471 -0.026288979 0.11809959 0.018321738
0000c0 df 55 ff bc 2d 14 22 bd 27 a0 12 3e c4 a2 6f 3c
       -0.031168876 -0.039570022 0.14318906 0.014626209
0000d0 77 1c 4b 3d 78 29 e6 3d fc 1f e0 3d 34 6c f1 bc
       0.049587693 0.11238378 0.109436005 -0.02947054
0000e0 20 6b 60 3c f0 01 81 3d 25 93 89 bd 47 28 c1 bc
       0.013697416 0.06299198 -0.06717519 -0.023578776
0000f0 51 1f 85 bd 19 e5 65 bc e0 1c 8b bd f8 f6 c2 bc
       -0.06500114 -0.014031672 -0.06792617 -0.023799405
000100 e9 fb a8 3c e3 17 83 bd d7 17 62 3e f1 df 8e 3e
       0.020627933 -0.064010404 0.22079407 0.2790523
000110 4a 04 da 3b 9a bb c3 3d a0 6f 27 3e e5 9b 53 3e
       0.0066533433 0.095572665 0.16351175 0.20664938
000120 5f 3d 28 3e f1 13 ef 3d c0 bb bb 3c d3 74 6d 3d
       0.16429661 0.116737254 0.022916675 0.05797274
000130 00 1d a9 3b 28 15 d4 3d fc 8d 47 3d 5e 97 29 3d
       0.005160928 0.10355598 0.04871939 0.04140412
000140 9a 60 4d 3e 35 98 dc bd 30 09 ce bd e3 aa 05 bd
       0.20056382 -0.10771219 -0.10060346 -0.032633673
000150 8c 0f aa 3d be 8e 3b 3e a3 66 12 3e 73 08 5b bc
       0.083037466 0.1831617 0.14296965 -0.013368714
000160 8b d0 78 3e c0 13 d5 3d 10 1b 54 bd 34 92 67 3e
       0.24298303 0.10404158 -0.05178362 0.22614366
000170 dc fa c1 bd 01 ce b3 bd 32 57 9a 3d 9e 68 97 3e
       -0.09471676 -0.087795265 0.075361624 0.29572004
000180 d3 97 85 3e 82 45 62 3e 2e 6c 29 3c 4c e5 6a 3d
       0.26092395 0.22096828 0.010340733 0.05734758
000190 1b c0 eb bc c7 92 df 3d ff eb 5c 3e 2b 49 99 3d
       -0.028778126 0.109166674 0.215744 0.07484659
0001a0 c0 64 53 3e f1 2e 9b 3d 42 bb 91 3d 5d dc 00 bd
       0.20643902 0.07577313 0.07115795 -0.031460155
0001b0 c2 7d 9b bc d2 90 52 3d 90 c7 82 3e 0e 99 24 3e
       -0.018980864 0.051407643 0.2554288 0.1607401
0001c0 6b ec 2f 3d a7 2c c3 bd df 2e 37 3e 60 82 d1 3c
       0.042950075 -0.09530001 0.17888974 0.025574863
0001d0 bc 6c 32 bd 84 9a 6f 3d 14 68 c9 3d 08 d0 43 3d
       -0.04356073 0.058496967 0.098343045 0.047805816
0001e0 58 60 0e 3d 20 a9 0d 3e 2e a0 e2 3d ce 4e 8c 3d
       0.03475985 0.13834047 0.11065708 0.06850968
0001f0 f7 27 89 3d e8 61 64 bd af c1 9d 3e b8 28 92 bc
       0.06697076 -0.055757433 0.3081183 -0.017841682
000200 e2 4b ff bd 6e aa a4 3d 00 08 74 bb f0 7d e2 bc
       -0.124656454 0.080403194 -0.0037236214 -0.027647942
000210 a6 24 90 bd 70 b5 cc 3c 68 63 d9 bd b8 f8 3d 3d
       -0.0703824 0.02498886 -0.10614663 0.046379775
000220 ac ba 90 bd 7c 84 09 bd 48 98 fd 3c 52 81 cc bd
       -0.07066855 -0.033573613 0.030956402 -0.099856034
000230 00 4c 7e b9 60 a2 09 bd 90 65 68 bc 8a 0e 8e bd
       -0.0002425164 -0.03360212 -0.014184371 -0.06936367
000240 10 6b a9 bc d0 07 88 3d 52 05 cd 3d 68 82 57 bd
       -0.020680934 0.06642115 0.100107804 -0.0526146
000250 28 69 ad bc ca eb b7 3d 24 2c 73 3d 20 12 f8 bd
       -0.021168306 0.0898052 0.059368268 -0.12112832
000260 7e 43 a9 3d 08 04 96 bc f0 bf 74 bd 80 52 94 3c
       0.08264826 -0.01831247 -0.05975336 0.018105745
000270 ba d1 eb bd b8 0b 5a 3d 00 be 80 39 b0 63 d7 bd
       -0.115146115 0.053233832 0.00024555624 -0.10517061
000280 72 d6 ef bd 3e 79 d1 3d 1a e2 dd bd 80 4a ce 3d
       -0.11710824 0.10228203 -0.10834141 0.100728035
000290 34 ba d1 3d 18 28 df 3c 48 9c aa 3d 90 6f fa 3c
       0.102405936 0.027240798 0.083305895 0.030570775
0002a0 46 99 f2 3d fc e2 7a bd 10 97 e8 3c 12 d5 de bd
       0.11845641 -0.061251625 0.028392345 -0.10880484
0002b0 80 ab b5 3c 96 8e d9 bd f8 0a 19 3d 80 7c 92 3d
       0.022176504 -0.10622899 0.037363976 0.07152653
0002c0 6a 42 d6 bd 3c 56 9c bd fc d3 73 3d f8 48 ee 3c
       -0.10461886 -0.076336354 0.059528336 0.029087529
0002d0 96 ce fa bd b0 3b ef 3c 10 18 d2 3c 2c b1 35 bd
       -0.122464344 0.029203266 0.02564624 -0.044358417
0002e0 b0 21 4d 3d 3e 01 fa 3d 5c f9 54 3d ea ea f7 bd
       0.050080955 0.12207268 0.05199562 -0.12105353
0002f0 0a e8 85 3d 0c e0 5c 3d e0 20 af bd 1c f3 9a 3d
       0.065383986 0.053924605 -0.08551192 0.07565901
000300 f8 cb 8b 3c 8a 49 46 3c c8 84 d4 bd c2 9e 5e 3c
       0.017065033 0.012102494 -0.103768885 0.0135876555
000310 90 57 45 bd 51 2e b0 3d b9 be 64 bd 2a 2a e6 bd
       -0.04817921 0.08602584 -0.05584595 -0.11238511
000320 da 2b 4c 3c 4e ba cf 3d d0 da f0 bd ac a5 f3 3d
       0.012461627 0.10142957 -0.11760485 0.11896834
000330 d0 03 88 bd 5c 70 44 bd 6c ee 6c 3d 53 b9 bb bd
       -0.06641352 -0.047958717 0.057844564 -0.09166207
000340 d0 4f db bc 32 ac 48 bd d0 1a 9a bd 5e f8 1d bd
       -0.026771456 -0.048992343 -0.07524645 -0.03856694
000350 48 38 8e bd 60 04 d1 3b 68 32 b9 3d e4 66 ca bc
       -0.069443285 0.0063786954 0.09042817 -0.024707265
000360 be 19 a0 3d a8 3f b9 3c f8 3f ab 3d 70 9c ef bd
       0.0781741 0.022613361 0.083618104 -0.1169976
000370 37 f4 10 3d 77 f4 f2 bd b6 0f da 3d b4 69 75 bd
       0.03538915 -0.11863034 0.10647528 -0.05991526
000380 a0 75 e7 bb f0 14 21 bd c4 81 fe bb ed 98 57 3d
       -0.0070635825 -0.03932661 -0.007766934 0.052636076
000390 e4 dc 5e 3d f8 10 68 bd 5c fd 55 bd cc 05 cf 3d
       0.054409876 -0.056656808 -0.052243575 0.101085275
0003a0 40 84 5f bd 22 d2 01 3d e8 55 5d 3d d5 36 cf 3d
       -0.054569483 0.03169454 0.054037005 0.1011788
0003b0 3c be be bd 10 fe 21 bd 94 f7 04 3d f6 3f 5e 3d
       -0.09313628 -0.039548934 0.03246267 0.054260217
0003c0 4c 2b 1b bd 6e 97 9c bd 2e 87 a8 bd 30 3d 81 3d
       -0.037883088 -0.076460704 -0.082289085 0.06310499
0003d0 38 fd 7e bd 14 4b 14 bd f8 42 a0 3d ac 29 28 bd
       -0.062253207 -0.036204413 0.07825273 -0.041055366
0003e0 ae 62 50 3d ae cb ed 3d 2a 74 e9 3d 6f 30 7e bc
       0.05087536 0.116111144 0.1139911 -0.015514477
0003f0 e3 16 98 bd 20 9e b0 3c 94 c6 9b 3d fc 6f 5b 3d
       -0.0742624 0.021559775 0.07606235 0.053573593

main.2.bias f4 [64]
000000 87 7b 56 3d 61 de 29 3d 50 c5 89 bd 6f 34 d4 bd
       0.0523639 0.041471843 -0.067270875 -0.103615634
000010 81 88 b0 bd 37 d1 38 3d 26 e4 b3 bd 73 ad df bd
       -0.08619786 0.045121398 -0.0878375 -0.10921755
000020 db ef ee 3c 60 aa c8 3d ac b1 5c bd 00 58 71 3b
       0.029167106 0.097981215 -0.05388038 0.0036826134
000030 86 44 d9 3d a4 af b9 bd 26 bb 3e 3d e3 3d 74 3c
       0.10608773 -0.09066704 0.046565197 0.014907333
000040 e8 4a cf bd c6 39 8f bd c0 12 c4 3d ad e7 be 3c
       -0.10121709 -0.06993441 0.09573889 0.023303831
000050 54 0b 17 3d 74 83 f8 bd 8f fa e6 bd 54 ae 95 3d
       0.036876038 -0.12134448 -0.11278259 0.07308641
000060 86 0a cd 3d 54 06 1b 3d d0 53 ae 3d 09 94 b0 3d
       0.10011773 0.03784783 0.0851208 0.086219855
000070 d6 3b a8 bd ac fb 4f 3d 35 d0 a8 3d 72 40 df bd
       -0.08214538 0.050777122 0.08242837 -0.10900964
000080 89 c3 60 bd b8 8e 27 bd 30 d7 b9 3c 82 cc 3b 3d
       -0.054873977 -0.04090759 0.022685617 0.04584933
000090 b3 b9 da 3d d8 0f 17 bd 68 26 a3 bd 3d d6 ff bd
       0.106799506 -0.036880344 -0.0796631 -0.124920346
0000a0 10 ff af bd db 30 f1 bd 79 d3 f7 bc 7f c1 3b 3d
       -0.08593571 -0.117768966 -0.030252205 0.04583883
0000b0 2c 00 18 bd 5c 9e a1 3d 46 23 88 3d c9 e1 51 3c
       -0.03710954 0.07891533 0.06647353 0.012810179
0000c0 9c da bc bd 32 50 dd 3d 17 e8 a5 bc 58 9e 66 3a
       -0.09221384 0.10806312 -0.02025227 0.0008797399
0000d0 6f 9f 27 3d b5 3d 67 bd 78 bd bf 3d a0 2f a3 3d
       0.040923532 -0.056455333 0.0936231 0.07968068
0000e0 71 50 95 bd 58 4d c7 3d 89 b2 ec 3d 06 8f 99 bd
       -0.072907336 0.09731549 0.115574904 -0.07497983
0000f0 2b 07 cf 3d 78 64 22 bd cc 3d db bd c8 cb d3 bd
       0.10108789 -0.039646596 -0.10705146 -0.103416026

main.4.weight f4 [64, 64]
000000 bc f1 77 bd 9e 6b 92 bd e0 d5 55 3c de ac c7 3d
       -0.06053327 -0.071494326 0.01305148 0.09749769
000010 30 4f 4c bc 74 87 af 3d cc 35 da bd 98 31 1d bd
       -0.012470052 0.085707575 -0.10654792 -0.038377374
000020 e8 1f 54 3d 8c 25 96 bd 04 4e cf bd 30 68 64 bd
       0.05178824 -0.0733138 -0.10122302 -0.055763423
000030 88 3d 58 bd 48 c1 8b bd a0 5c 81 bc e0 42 63 bd
       -0.052793056 -0.06823975 -0.015791237 -0.0554837
000040 98 df d6 3d 48 f4 d6 bc 30 3d 10 3c 1a 76 cd 3d
       0.10491866 -0.02623953 0.008803651 0.10032292
000050 38 24 b1 bd 0c 7d c3 3d 20 8b c0 3c a0 11 ae bb
       -0.08649486 0.09545335 0.02350384 -0.0053121597
000060 12 bd b6 3d 0e 45 95 bd d4 a1 cc 3d 1c d2 93 bd
       0.08922781 -0.07288562 0.09991804 -0.072178096
000070 58 3d 8e 3c e8 8f 29 bd f0 ef e8 bd f0 f0 1d bc
       0.017363235 -0.041397005 -0.113738894 -0.0096399635
000080 30 37 cf 3c e4 8f b1 bd b6 16 97 bd 58 23 a0 bd
       0.02529487 -0.08670023 -0.07377379 -0.07819241
000090 f0 0d 7d bd ba ba c7 3d 40 ff 9c bc 80 de 31 3d
       -0.06178087 0.09752412 -0.019164681 0.043425083
0000a0 58 3d da bd 9e 97 a8 3d dc 6a cc 3d 20 32 a2 bc
       -0.10656232 0.08232044 0.09981319 -0.019799292
0000b0 5c 47 ec 3d d2 ff d2 3d 78 63 82 bd ba 9c fe 3d
       0.11537048 0.103027 -0.063666284 0.12432237
0000c0 06 0e f8 3d 9c e8 da bd d4 94 e7 bd fa b3 8d 3d
       0.1211205 -0.10688898 -0.113076836 0.069190934
0000d0 00 ae 99 b9 58 37 22 bd ae 98 be bd b0 c5 d1 3d
       -0.00029312074 -0.03960356 -0.09306465 0.10242784
0000e0 78 ef b7 bd 76 8d 84 3d a0 1c 35 bd b8 a8 bd 3d
       -0.08981222 0.06472294 -0.044216752 0.09260696
0000f0 f0 ce 3e 3c 7c 62 13 bd 10 4e aa bc 4e 08 ad bd
       0.011646017 -0.035982594 -0.020789176 -0.084488496
000100 3c 36 07 3d c0 00 23 bb ba 95 8d bd 28 ff d7 bd
       0.033010706 -0.0024872273 -0.06913324 -0.10546714
000110 82 a0 93 3d 94 cc 82 3d 20 ea 96 bd 5e 41 83 3d
       0.07208349 0.063866764 -0.073688745 0.06408952
000120 ba d4 93 3d 8e 31 d1 3d 90 f7 c7 3d b6 8b a0 3d
       0.07218309 0.1021453 0.09764016 0.07839148
000130 e0 b7 cb bb 20 b8 d8 3b 88 d0 50 3d ec fa f3 3d
       -0.006216988 0.0066137463 0.05098012 0.11913094
000140 96 02 cc 3d 80 96 ec 3b c0 47 e6 bc e8 ef b1 bd
       0.09961431 0.0072200894 -0.028110385 -0.086883366
000150 20 d0 c8 3d 98 d5 c8 3d 48 84 14 bd 7c 33 c9 bd
       0.09805322 0.09806365 -0.036258966 -0.09824273
000160 78 9f 4d bd 4a 85 f8 bd 66 58 e1 bd c6 60 ad 3d
       -0.05020091 -0.12134798 -0.11003189 0.08465724
000170 e8 ee 6c 3d 24 c4 ce bd b2 de c5 bd 7c 9f db bd
       0.057845026 -0.100960046 -0.096616164 -0.107237786
000180 3c a1 ac bd 80 e0 40 bb 70 0b ee 3c 1c 3d b9 bd
       -0.084291905 -0.0029430687 0.029058188 -0.09044859
000190 7e 59 c5 3d e4 ad 13 bd 4e 93 b4 3d b0 53 14 bd
       0.0963621 -0.036054507 0.08817159 -0.036212623
0001a0 9e 84 da 3d 78 05 50 3d 72 0c eb 3d 80 ad 77 3d
       0.10669826 0.050786465 0.11476983 0.060468197
0001b0 04 af 67 3d c0 82 c3 bb 86 5b b1 bd dc a3 e9 bd
       0.056563392 -0.0059665143 -0.08660035 -0.11408207
0001c0 ba 45 b1 3d 38 7f a9 bd 18 c3 04 bd 6c 4e fb 3d
       0.086558774 -0.08276218 -0.03241262 0.12270817
0001d0 b8 e3 ce 3c ac dd c8 bd d4 05 02 bd d4 0c b6 bd
       0.02525507 -0.098079056 -0.03174384 -0.088891655
0001e0 f0 7c 26 3d 80 3c 85 3d b0 d3 34 bc ea e8 b5 bd
       0.040646493 0.0650568 -0.011036798 -0.088823155
0001f0 ac 2c 9c 3d d0 3f 16 bc 80 d9 d5 3a 88 c1 bb bc
       0.07625708 -0.0091704875 0.001631543 -0.022919431
000200 cc 13 d1 3d 55 59 67 3c ea d6 b3 3d 70 57 f9 bd
       0.10208854 0.0141204195 0.08781226 -0.121748805
000210 98 10 3d 3e 87 c2 bf 3d ab ab be bc 7e e7 a6 bd
       0.18463361 0.09363275 -0.023275217 -0.081496224
000220 d1 2c 03 3d 26 93 88 3d 40 c0 04 3d 00 f3 35 bd
       0.032025162 0.06668691 0.032409906 -0.044421196
000230 22 b8 90 3d 58 63 b9 3d 00 0f ea 3b 0a 15 05 3d
       0.070663705 0.090521514 0.0071429014 0.032490768
000240 d4 89 97 bd 45 c1 7a 3d ea 29 a9 bd bd cc 70 3d
       -0.073993355 0.061219472 -0.082599476 0.058789004
000250 e9 6d 32 3e 00 26 1d 3a a2 3f 22 3e 93 0f 03 3e
       0.1742474 0.0005994737 0.15844586 0.1279891
000260 f8 d2 ce 3d cb ce cd bc 97 62 9f 3d 49 fb 8e 3d
       0.10098833 -0.02512302 0.077824764 0.069815226
000270 0b 91 a8 bd b8 a8 13 3e 79 71 4a bc f4 aa ab bc
       -0.0823079 0.1441983 -0.012356156 -0.02095554
000280 37 dd 02 bd a0 2a d3 3c 2a 13 6b 3b 99 2e 1b 3d
       -0.03194925 0.025777161 0.0035869577 0.037886236
000290 7f e8 9c bc 1c 2b 00 3d 82 90 38 3c 00 7c 61 39
       -0.019153832 0.031291112 0.011264922 0.00021503866
0002a0 6c fe 94 3d 3a b9 c6 3d a2 51 85 bc 8c a3 2c bd
       0.072750896 0.09703298 -0.016274277 -0.042148158
0002b0 02 4b e6 bd 14 a2 03 bd 29 88 e7 3d 9e 0e bd 3d
       -0.11244775 -0.03213699 0.11305267 0.09231304
0002c0 92 78 94 3d ba c0 0e bd 14 63 15 3d c0 ba cf 3d
       0.072495595 -0.034851767 0.03647144 0.101430416
0002d0 56 6e bf bc 6c 72 2c bd fe 1a d7 3c 2f cf 3e 3d
       -0.023368042 -0.04210131 0.026257988 0.046584304
0002e0 ae d5 8c bc c3 02 cb 3d 00 d5 8a 3d 40 39 5f bc
       -0.017191734 0.09912636 0.06778908 -0.013624489
0002f0 b1 52 86 bd 59 3e 2c 3d 0a 46 4b 3e 38 f1 81 3c
       -0.06558741 0.042051647 0.19850937 0.015862092
000300 a8 9f 10 bd 20 95 f1 bb a8 16 6f bd c4 c6 6c 3d
       -0.03530851 -0.0073725134 -0.058371216 0.057806745
000310 9e 76 a5 bd 26 22 84 bd a8 20 18 3d 40 1e ad bb
       -0.08079265 -0.06451826 0.03714052 -0.005283147
000320 32 44 91 bd 40 eb ba bb 3a fa c1 bd 94 be 28 bd
       -0.07093085 -0.0057043135 -0.09471555 -0.041197374
000330 d0 4e 9d bc 98 08 a1 bd 80 d5 c1 3c 8e d2 aa 3d
       -0.01920262 -0.07862967 0.023661375 0.08340941
000340 00 5f 18 3c 92 db d9 bd c8 b4 c0 bd cc 2c 60 bd
       0.0092999935 -0.10637583 -0.09409481 -0.05473022
000350 e4 8d 74 3d 86 3f ab bd 1c 41 71 bd 40 bf b3 bb
       0.05970563 -0.083617255 -0.058899984 -0.0054854453
000360 a8 30 81 bd 98 ca 98 3c 0c c5 0c bd a2 5d dc bd
       -0.063081086 0.018651292 -0.034367606 -0.107600465
000370 c0 16 3c bb 1c 33 80 bd 2a 24 b7 bd 9e e4 cb 3d
       -0.0028700083 -0.06259748 -0.089424446 0.09955715
000380 d6 74 8b 3d a8 46 16 bd 24 0c 29 bd 46 54 80 bd
       0.06809394 -0.036688477 -0.041271344 -0.06266074
000390 d4 11 16 bd 68 e3 e1 bc e8 ca 24 bd 3c 6a 81 3d
       -0.036638096 -0.027574256 -0.04023257 0.06319091
0003a0 00 0c ab b9 5c cf c8 3d 34 99 fd 3d 1c 9b 6f 3d
       -0.00032624602 0.09805176 0.12382737 0.058497533
0003b0 08 ed 98 3d 9c 8e 2d 3d 26 5e e1 bd 7c 45 ee 3d
       0.07467085 0.04237233 -0.110042855 0.11634347
0003c0 de 0d f4 bd a0 80 89 3b 70 bd 2b 3c 54 0b 52 bd
       -0.119167075 0.0041962415 0.010482177 -0.051280335
0003d0 20 fe bc 3c 04 04 1f 3d 1c 4d 6a 3d e8 57 b0 bc
       0.023070395 0.03882219 0.057202443 -0.021526292
0003e0 da f5 8c 3d 56 2f d4 bd b0 96 d6 bc 9e 74 fe bd
       0.0688283 -0.10360591 -0.0261949 -0.12424587
0003f0 c0 2f 81 bb 30 86 c9 bc 98 30 b7 bd 58 e4 a9 bd
       -0.00394246 -0.024600118 -0.089448154 -0.08295506

main.4.bias f4 [64]
000000 58 eb 7f bd 48 be fc bd 3f 62 0c be 44 f4 68 3d
       -0.0624803 -0.12340981 -0.13709353 0.056873575
000010 3d 81 7b 3d 29 6d 6d 3c 05 43 5b 3d 55 90 e1 3c
       0.061402548 0.014491358 0.05353071 0.027534643
000020 ba de ec bd be 66 fe bd a7 63 c6 3b 50 7e e1 bc
       -0.11565919 -0.1242194 0.00605436 -0.02752605
000030 ae 1b a2 bd fe 84 4d bd 48 f8 c1 3d f9 bc c7 bd
       -0.07915436 -0.05017566 0.09471184 -0.097528405
000040 2f d7 86 3d 08 f7 b0 bd c4 46 ba 3d 0a bc bf bd
       0.06584012 -0.086408675 0.09095529 -0.093620375
000050 3b 6e d8 3d 0c ea 82 bd cd b4 a3 3d 17 0f fc bc
       0.105679 -0.06392297 0.079934694 -0.030768914
000060 8a ac e8 bd f2 a7 e7 bd 8f 0a 16 bd 96 92 9d bd
       -0.11361034 -0.1131133 -0.036631163 -0.07693975
000070 52 10 bb bd 51 46 be 3d cf 1e 54 3c 54 ba 15 bd
       -0.09133972 0.092907555 0.0129467985 -0.03655465
000080 63 7f e0 bd 43 b6 bd 3d b0 a7 71 bc 2c ad fc 3c
       -0.10961797 0.09263279 -0.0147494525 0.030844294
000090 80 31 e9 bd f1 f8 4c bd b2 f0 ed bd 60 75 49 bd
       -0.113863945 -0.050042097 -0.116181746 -0.049184203
0000a0 de ec 83 3d 14 17 aa bc 7c 66 74 bd 0a 1a 34 3d
       0.06441663 -0.020762958 -0.05966805 0.043970145
0000b0 93 6a 18 bd a2 2d 3c 3d 7a ec 93 bd c0 6c f9 bd
       -0.037211012 0.045941956 -0.07222839 -0.121789455
0000c0 59 8b be bc 12 b3 cc 3c a7 aa 61 3d 6a 43 07 be
       -0.023259806 0.024987731 0.055094387 -0.1320931
0000d0 a3 0c 3a bd e2 99 fa bd ec 1f 15 3d 6c e1 43 bc
       -0.045422208 -0.12236382 0.036407396 -0.0119556
0000e0 85 aa 76 3d 22 66 84 bd 00 b5 9f bb e8 9c a2 bd
       0.060221214 -0.06464793 -0.004873872 -0.07940084
0000f0 3c c9 01 3d 72 c8 c7 3d e0 f6 7e bc 38 b4 9a bd
       0.031686053 0.09755029 -0.015561789 -0.07553905

main.6.weight f4 [64, 64]
000000 1a 3d 8c 3d f8 bb ae bc 88 bb 65 3d be 1f f8 3d
       0.06847592 -0.021329865 0.056087047 0.12115429
000010 05 e3 89 3d 23 bf 64 bc e3 eb 15 bd 92 90 f3 bd
       0.06732754 -0.013961586 -0.036601912 -0.11892809
000020 48 c7 ee bd 68 50 87 3d 8f e8 e7 3d 70 d6 86 bc
       -0.11659104 0.06607133 0.11323654 -0.016459674
000030 87 14 38 3d 1e cc 18 3c 34 d1 fb bd e2 a8 c9 3d
       0.04494145 0.009326009 -0.12295762 0.09846665
000040 44 8d 8f bd a0 4e a4 3c c9 1d 05 3d dd 81 b2 3d
       -0.07009366 0.020057023 0.03249911 0.08716176
000050 a3 ea b0 3d 54 bd 1a 3d 42 ac 71 3d 7f 41 3c bb
       0.086385034 0.037778214 0.05900217 -0.0028725562
000060 a4 28 85 bd 0c 8b 96 3d 52 93 8d bd 8f c8 46 bc
       -0.06501892 0.0735074 -0.06912865 -0.012132778
000070 4e d2 89 3d 89 d4 9a 3d 34 c9 7f 3b 4a 0b 89 3d
       0.067295656 0.07560069 0.0039029839 0.06691606
000080 b4 fb 64 bd 92 f4 67 bd c8 1d a4 3c 03 0d dc bc
       -0.055904105 -0.056629725 0.020033732 -0.026861673
000090 90 3c 11 3d 18 1f 92 bc 9a 99 34 bd 85 0a c1 3d
       0.035458148 -0.017837092 -0.0440918 0.094258346
0000a0 c9 56 04 3d 74 48 74 3c 48 04 b4 bc 8b 7d a3 bc
       0.032309327 0.014909852 -0.021974698 -0.019957324
0000b0 f8 cf 61 3d 14 32 7d 3d 74 cb f4 bd de dc 83 3d
       0.055129975 0.061815336 -0.11952868 0.064386114
0000c0 fd b1 d0 bd 71 38 4b bd 63 f0 e1 3d b8 14 13 3d
       -0.101901986 -0.049614374 0.11032178 0.03590843
0000d0 b0 dd b7 bd 40 61 95 3c 4a 14 83 bc 1e 7d 07 be
       -0.089778304 0.018234849 -0.016000886 -0.13231322
0000e0 6c af af bc 4c c6 bb 3c 30 1c ad bc 34 ee d1 3d
       -0.021445952 0.022921704 -0.021131605 0.10250512
0000f0 51 76 d5 3d 01 d3 6d 3d 40 f5 cd bb df 4d 95 bd
       0.10422958 0.058062557 -0.0062853396 -0.07290243
000100 1c cd 64 bd 70 5f 57 bc af f5 12 3e 18 bd ae bd
       -0.05585967 -0.013145313 0.14351533 -0.085321605
000110 20 9d 75 3d 48 77 8b bd 0c 41 50 bd 22 96 eb 3d
       0.0599643 -0.068098605 -0.050843284 0.11503245
000120 00 5a 45 3b 20 2c 74 3d 7c 89 20 3e 9a 0e 84 3d
       0.0030113459 0.059612393 0.15677446 0.064480975
000130 3a 9c 03 3e b4 5b 40 3b 38 fa 9b 3d fb d2 25 3d
       0.12852564 0.0029351534 0.07616085 0.04048441
000140 86 26 8b 3c 54 0f 23 bd eb bf c2 bb d0 7e 60 3b
       0.016986143 -0.03980954 -0.0059432886 0.0034255274
000150 3d 50 38 3d f8 53 13 bd ff 0a 1a 3d 0f a7 51 3d
       0.044998396 -0.03596875 0.037608143 0.05118471
000160 a0 d0 84 3b 9a d7 8e bd 6f 57 b0 3c 2a ee 8f 3d
       0.0040531904 -0.069747165 0.021526067 0.07027848
000170 c4 a8 58 3d c5 af bc bd 24 a9 06 3d 66 09 ce 3d
       0.052895322 -0.09213213 0.03287615 0.10060386
000180 dc d3 21 3d 77 9f 25 3e 40 e6 a3 3c 24 51 92 bd
       0.039508685 0.16174112 0.020007253 -0.071443826
000190 48 e5 b3 bd fd ab ac 3c b4 8a af bc 5f a4 7a 3c
       -0.08783966 0.021078104 -0.021428443 0.015297978
0001a0 86 55 04 3e a5 c0 12 3e f4 05 9a bd ab 8c c0 3d
       0.1292325 0.143313 -0.07520667 0.0940183
0001b0 9f 32 a9 bd aa 74 b9 3d a4 70 20 3d 98 86 10 bd
       -0.08261608 0.09055455 0.039169922 -0.03528461
0001c0 ac af f9 3c f4 b9 ce 3c e3 4c 90 3c 71 f9 ce bb
       0.030479275 0.025235154 0.017614787 -0.006316357
0001d0 c1 2f c7 3d b8 22 a9 bd 6e 2e 96 bd 62 02 59 3d
       0.09725905 -0.08258575 -0.073330745 0.052980788
0001e0 36 53 f6 3d 65 ee 31 bb e2 6a b1 bd 31 f2 73 3e
       0.1202759 -0.002715015 -0.086629644 0.23822857
0001f0 1f 9f a7 bd b5 25 17 3e ea 97 b4 bd 86 c3 b0 3d
       -0.08184647 0.14760478 -0.08818038 0.08631043
000200 54 81 eb bd 58 d9 7d bd 75 cf 80 bd 6a 2d 98 3d
       -0.11499277 -0.061974853 -0.06289569 0.07430537
000210 e6 9f 49 3d b0 c6 07 3e 45 6d bb bd 5d 7e ff 3d
       0.049224757 0.13259387 -0.09151701 0.12475274
000220 46 3b e8 3d aa 9f fa bd c2 c3 82 3e b8 b8 a7 3d
       0.113394305 -0.12237485 0.25539976 0.08189529
000230 72 26 8b bd 56 99 09 3e bb 1e d2 3c c6 3e f9 bd
       -0.06794442 0.134374 0.025649419 -0.12170176
000240 d8 c8 f3 3d 80 b3 b2 3a 77 10 e6 bd ba ba 7d 3d
       0.11903542 0.0013633817 -0.11233609 0.061945654
000250 73 f0 fb bb a8 04 5b 3d b8 87 e5 3a 9c 6b 35 bd
       -0.007688576 0.053471237 0.0017511761 -0.044292077
000260 40 46 2c 3b 1f cf a9 3c fc e6 11 bd 59 5e 14 3e
       0.002628699 0.020728646 -0.035620674 0.14489116
000270 e8 77 c9 bc 8a fe 75 3d f7 3f 93 3c c4 cb 46 bd
       -0.024593309 0.0600572 0.017974837 -0.04853417
000280 52 76 09 3e 12 fe 9e 3d 7c 0b 5a bd e6 8a a6 bd
       0.13424042 0.07763304 -0.05323361 -0.081319615
000290 60 4a 1b bd d5 19 53 3d a9 43 54 bd 95 49 f5 3d
       -0.037912726 0.051538307 -0.05182234 0.11976925
0002a0 45 c1 28 bd 2d 00 12 3e c2 e5 a7 bd 1d b7 e1 3c
       -0.04119994 0.1425788 -0.0819812 0.027553136
0002b0 94 ac bd bd ff 7e ba 3d 60 19 86 bc a0 4d be 3c
       -0.09261432 0.09106254 -0.016369522 0.023230374
0002c0 07 b8 6b 3c 5e f6 e9 3d 92 53 c3 3d ac 9d a4 3d
       0.014387137 0.11423944 0.09537424 0.08037886
0002d0 d0 de bb 3d 20 1a 0e bc fe ec d1 bd 21 93 25 3d
       0.091733575 -0.008673221 -0.10250281 0.040423516
0002e0 f1 fe 3c bc f8 a8 ed bc 96 78 b4 3d da df 6f 3e
       -0.011535392 -0.029011235 0.088120624 0.23425236
0002f0 29 bf db 3c 43 67 02 3d 1c 69 82 3d cc 63 91 3c
       0.02682455 0.03183676 0.06367704 0.017747782
000300 c8 cd 81 bd 00 cf 04 3a 52 ff d4 3c 64 3e 3d 3d
       -0.06338078 0.0005066246 0.026000652 0.04620208
000310 0d 6f fa b9 25 e8 08 bd 00 42 84 bd 40 62 20 bc
       -0.00047766455 -0.033424515 -0.06457901 -0.00978905
000320 00 f0 f9 bc 1e d6 c3 3d 7d a3 5d 3d 06 10 d4 bd
       -0.030509949 0.09562324 0.054110993 -0.10354619
000330 36 ad 1d 3d 61 34 1d 3e 05 85 87 bc e8 90 e6 3d
       0.038495265 0.15352012 -0.01654292 0.112581074
000340 ae ed b1 bd 50 57 14 bc 75 45 c6 bc c1 37 a8 3d
       -0.08687912 -0.00905402 -0.024203042 0.08213759
000350 8e 92 a5 3d 98 56 fa bc 38 48 bc 3d 66 b6 49 bd
       0.08084594 -0.03055887 0.09193462 -0.049246214
000360 00 68 98 39 04 da 29 bd fb 13 bd 3d a4 68 b5 bc
       0.00029069185 -0.04146768 0.092323266 -0.022144623
000370 e0 43 09 3d 86 23 14 3c a9 8a 25 3b 40 c0 3a 3c
       0.033511996 0.009041673 0.002525965 0.011398375
000380 5c 2c 7e 3d 34 be ff 3d 44 83 c9 bd 2b 1d c4 bd
       0.062054023 0.1248745 -0.0983949 -0.09575876
000390 3a 27 b7 bd 20 a0 9c 3d f8 00 23 3e 0e e5 a8 3a
       -0.08943029 0.07647729 0.15918338 0.0012885646
0003a0 57 4e fe 3d 32 b5 a7 3d e4 91 60 bd 10 8a 7f 3c
       0.12417286 0.08188857 -0.054826632 0.0155968815
0003b0 5a 8f 8c bd 88 80 bf 3d 98 a0 f1 3d ac 1a c6 bd
       -0.0686328 0.09350687 0.11798209 -0.09673056
0003c0 61 c3 ee 3d ed 95 01 bd 7c 7b 0f 3e 40 18 d7 bd
       0.11658359 -0.03163712 0.1401195 -0.10502672
0003d0 49 05 55 3d 7e bd b4 bd a9 ba ce 3d 78 32 9f bd
       0.052006993 -0.08825205 0.10094196 -0.07773298
0003e0 7d e4 03 bd 2f 93 1a bd fc dd 97 bd ec 8f c5 3b
       -0.032200325 -0.03773802 -0.07415387 0.0060291197
0003f0 9a f7 64 3b 06 13 b5 bd d4 55 19 bd 63 5c 89 3d
       0.003493762 -0.08841519 -0.037435368 0.067070745

main.6.bias f4 [64]
000000 36 33 9c 3c c8 a9 05 bc b1 e5 ca bd 72 24 b9 3d
       0.019067388 -0.008158155 -0.099070914 0.090401545
000010 9e 96 55 3c 48 92 9d bc 0e f1 11 bc 62 3d ac bd
       0.013036398 -0.019234791 -0.00890757 -0.08410145
000020 aa 15 cf bd 80 04 ba bc 76 33 f1 3d a4 fd c8 bd
       -0.10111554 -0.022707224 0.117773935 -0.09814003
000030 ba 21 ee 3d 0c f5 4b bd b7 ab 90 3d 44 54 e4 bd
       0.116275266 -0.04979424 0.07064002 -0.11148885
000040 cf 5c da ba 70 bb 65 bd 00 1c 8e 39 b8 73 62 3d
       -0.0016659739 -0.056086957 0.00027105212 0.05528614
000050 90 f9 e0 3c 90 48 ac bd 58 c6 0d be 97 d8 d4 bc
       0.02746275 -0.08412278 -0.13845193 -0.025982184
000060 60 76 0d 3d f2 bc 61 bd 84 6c 81 3b ac 8e 55 3c
       0.03453672 -0.055111833 0.0039497036 0.013034504
000070 5d 81 ba 3d 11 f5 1f bd 11 42 df bd bc 69 13 bd
       0.09106705 -0.039052073 -0.10901273 -0.035989508
000080 e1 bb 01 3e 28 70 ca 3c 20 db 91 bd 1e 39 4e 3d
       0.12669326 0.024711683 -0.07121873 0.05034744
000090 ec ad 90 bb b9 94 f4 3d 87 6e 01 be 9c 89 8e 3d
       -0.0044152644 0.11942429 -0.12639819 0.06959841
0000a0 cc b0 5a bd 3f 4c 0f 3d 2a 8b e0 bd 18 ef 09 3e
       -0.053391263 0.034984823 -0.109640434 0.13470113
0000b0 8c a6 12 bd b3 47 9b bd 10 7a 7f bc ca 73 ac 3d
       -0.035803363 -0.07582035 -0.015593067 0.084205225
0000c0 0b c2 3b bd 3e 0b c5 bd ab 76 d7 bd 3a 81 6b bb
       -0.04583935 -0.09621285 -0.10520681 -0.003593518
0000d0 5b b9 c4 3d e2 b1 92 3d 72 af ac bd 8c d1 5d bd
       0.09605666 0.07162835 -0.08431901 -0.054154918
0000e0 e2 1d 55 bd 3c eb e4 bd 3d ea 9a 3d 51 82 09 be
       -0.05203045 -0.1117768 0.07564209 -0.13428618
0000f0 53 b4 b8 3d 4a c2 a6 3d 5a 3d 7c bc 04 10 8d bd
       0.09018769 0.081425264 -0.015395487 -0.0688782

main.8.weight f4 [64, 64]
000000 ee 5b 96 bd fa c4 24 3e 5a 7b c7 3d 1c be 63 3d
       -0.07341753 0.16090766 0.09740324 0.055601224
000010 d5 be e8 bc 53 f4 e2 3d 32 2b 83 bd fa fe d7 bd
       -0.028411308 0.110817574 -0.06404723 -0.1054668
000020 29 0a 30 bd 29 d6 f5 3d ae d8 06 3e fa 8e d7 bd
       -0.04297844 0.120037384 0.13168594 -0.105253175
000030 84 f2 be 3d b0 d3 46 3c 75 a9 fe 3d a0 d4 33 bc
       0.093236 0.012135431 0.12434665 -0.010975987
000040 6c aa 07 3e 16 ec f7 3d 74 2f a1 3d b5 da 93 bd
       0.13248605 0.12105577 0.07870379 -0.072194494
000050 cc 7a 13 3b ec 26 b1 bd 56 27 c4 bd 4e 4e 0b bd
       0.0022503613 -0.08650002 -0.09577815 -0.034010224
000060 78 23 83 3c 4b 58 e1 3d ea 71 33 3e bd 94 77 bd
       0.016008124 0.11003169 0.17523924 -0.060444582
000070 2c 2c 30 3c 1f e2 92 3d 3d d3 85 bd a6 7f 87 3d
       0.010752719 0.071720354 -0.06534431 0.06616144
000080 0a a4 2a 3d 28 73 32 3d 38 c5 f6 3d b9 71 16 3e
       0.041660346 0.043566853 0.12049335 0.14691819
000090 2d 9c 64 bb ff 78 0f 3e 5c 3e c7 3d c2 a9 de 3d
       -0.0034883127 0.14011 0.09728691 0.108722225
0000a0 60 cd fb bb 4d ed cc bc db ea c6 3d 33 ca 11 3e
       -0.0076843947 -0.025015498 0.09712764 0.14237289
0000b0 80 d9 c6 bc 6f 25 34 bc 70 03 df bd 9f 9d 57 bc
       -0.024273634 -0.010995253 -0.108893275 -0.013160138
0000c0 16 31 95 3c 61 18 b3 3d f8 3b e3 3d 2e 57 08 3e
       0.018211883 0.08744884 0.110954225 0.13314506
0000d0 35 fd e3 bc e4 26 2a 3e a9 2b e4 bd f8 f5 e6 3d
       -0.0278307 0.16616398 -0.1114114 0.112773836
0000e0 83 73 9f 3d 5e 22 7d 3d 96 9c 10 3e c8 0f 99 bc
       0.07785704 0.061800353 0.14122233 -0.018684283
0000f0 99 06 60 3d 77 62 8a bc b2 01 d2 bd d8 be ed 3d
       0.054693792 -0.016892655 -0.102542296 0.11608666
000100 83 9f 87 bd fb 33 7a bd ae 1e dc bd 41 16 5b 3d
       -0.06622221 -0.06108473 -0.10748039 0.05348802
000110 b1 96 ae 3c d7 7f 7c 3d 98 e3 55 3d 98 5e 1d 3d
       0.02131209 0.061645355 0.052219003 0.03842029
000120 86 44 34 bd 62 21 81 3d 9f 0f c8 bd 50 83 ba 3c
       -0.04401066 0.063051954 -0.097686045 0.022767693
000130 0e ef 76 3c 08 84 e9 bc ca 5a 6e bd a0 36 7a bc
       0.0150716435 -0.02850534 -0.058192052 -0.015271813
000140 00 77 03 be ec e6 da bd e8 5f 5c bd 21 7f f6 bd
       -0.12838364 -0.10688576 -0.0538024 -0.12035967
000150 dd a0 8c bd 28 16 d8 3c c8 46 d0 bd eb 87 8f bc
       -0.0686662 0.026377752 -0.101697505 -0.017520865
000160 58 12 88 bc 80 89 e2 3d be 0f a0 bd ba af 9e 3d
       -0.01661031 0.11061382 -0.078155026 0.07748361
000170 c3 15 b2 3a 13 32 39 bd 59 d7 08 3d c6 ca 92 bd
       0.0013586808 -0.04521377 0.033408497 -0.07167582
000180 b1 84 83 bc 40 2c e3 3d e8 59 ef 3c 7d e8 8a bd
       -0.016054483 0.110924244 0.029217675 -0.06782625
000190 e3 fd 3a 3d a5 3d 09 bb 00 c2 ef 3a cc b7 7f bc
       0.04565228 -0.0020941284 0.001829207 -0.015607785
0001a0 c4 b2 df bd 90 ab c4 3d 94 f2 9b 3d eb 60 31 3d
       -0.10922769 0.096030354 0.076146275 0.04330532
0001b0 22 90 b4 3d c4 15 d8 bd 5c fd 31 3d ce 3a f9 3c
       0.08816554 -0.105510265 0.043454513 0.030423548
0001c0 b0 8d bb bc d2 7f 7b 3c 7a da d0 3d 5e c0 f4 3b
       -0.02289471 0.015350299 0.10197921 0.007469221
0001d0 ef 5d 96 bd d7 56 af 3d 94 fc 1c bd b0 a9 e1 bd
       -0.07342135 0.08561485 -0.038326815 -0.110186934
0001e0 b9 e1 fb bc b8 9f a2 bd 3b 56 94 3d 7d a3 05 bd
       -0.030747281 -0.0794062 0.0724301 -0.032626618
0001f0 6c 72 19 3d 59 f4 88 3d b7 c5 2d 3d 62 77 a3 3d
       0.037462637 0.066872306 0.042424884 0.07981755
000200 50 c8 81 bd 18 98 4b bd 68 36 8f bc 51 38 12 bd
       -0.06337035 -0.049705595 -0.017481998 -0.03569824
000210 95 b8 27 3d 83 01 e3 3d c9 b0 a8 bd f2 a1 8a bd
       0.040947516 0.11084273 -0.08236844 -0.0676917
000220 44 66 7c bd 43 38 03 3d b9 30 e3 3c e0 ab bd bc
       -0.061620966 0.032036077 0.027733194 -0.023153245
000230 bd 20 95 bd b4 6c a3 3d f7 f9 ba bd 96 b9 b6 bd
       -0.07281635 0.07979718 -0.09129708 -0.089221165
000240 70 72 c6 3d 00 39 0e 3d 10 68 05 bc 79 a5 8c 3d
       0.09689796 0.03472233 -0.008142486 0.06867499
000250 d2 0b a9 3d 28 9c 75 bd 0b 7b 17 3d 27 2f cc 3d
       0.08254208 -0.059963375 0.036982577 0.09969931
000260 d8 dc a4 bc 4d 54 00 bd f1 16 88 bd b0 12 94 bd
       -0.020124838 -0.031330395 -0.06645001 -0.07230127
000270 65 98 e2 3d f3 87 c7 bd fe be 8d bd d8 34 c7 bd
       0.11064223 -0.09742727 -0.069211945 -0.09726876
000280 fb 87 2b 3e a0 0c 9f 3b 4e 54 e1 3d b4 29 2d 3e
       0.16751091 0.0048538 0.11002408 0.1691044
000290 42 c7 0f bd b3 b0 5d 3d 9d be f9 bd 32 a3 15 bd
       -0.035102136 0.05412359 -0.1219456 -0.03653259
0002a0 60 54 3e bc 04 98 95 3c ee a1 1e 3d 88 96 11 3e
       -0.011616796 0.018260963 0.038728647 0.1421758
0002b0 c8 27 92 3d da a2 b6 bc 46 88 a0 bd 99 6f d3 bc
       0.07136494 -0.02229445 -0.07838492 -0.02581005
0002c0 9c 5a ea bc b7 65 05 3e e1 d3 94 bd 0b cc 66 bd
       -0.028607659 0.13027082 -0.07266975 -0.056346934
0002d0 1e e9 72 bd a4 00 3d bd 81 20 3e 3b 40 dd ff bb
       -0.05930435 -0.04614319 0.0029011073 -0.0078083575
0002e0 12 7d 70 bd e5 fc e9 3d e7 09 04 3e a4 86 9f 3d
       -0.058713026 0.11425189 0.12894402 0.077893525
0002f0 32 ce 99 bd 85 b7 88 3d dd a0 50 3c ba 1c d0 bd
       -0.07510032 0.066756286 0.012733665 -0.10161729
000300 42 f1 f9 bd 48 df 0b 3d 6a 1d d7 bd c0 95 b6 bc
       -0.122042194 0.034148484 -0.10503657 -0.022288203
000310 00 00 14 b6 7e 4d b5 bd c0 5d 77 3c 9c 46 03 3d
       -2.2053719e-06 -0.08852671 0.015098035 0.03204976
000320 c4 3c a7 3d 28 83 f6 3c 74 7e 92 bd ae 62 fd 3d
       0.08165887 0.030091837 -0.07153025 0.12372337
000330 a6 2f ef bd e0 5f b1 bc 92 03 a7 bd a8 c2 7d 3d
       -0.1167901 -0.021652162 -0.08154978 0.061953217
000340 30 49 c9 3c 72 6c 94 bd 0a 18 a7 bd 18 4b c5 bc
       0.024571031 -0.07247247 -0.08158882 -0.024083659
000350 e4 99 7b bd 38 d7 17 3d f2 5e de bd 68 f4 8a 3c
       -0.06142606 0.037070483 -0.10857953 0.016962245
000360 80 39 12 3c dc 4d 4e bd f2 25 eb bd 2e e0 e7 3d
       0.008924842 -0.05036722 -0.11481847 0.11322056
000370 58 ce eb 3c f4 1f 80 3d 54 11 d8 3d c8 7f 85 bd
       0.028784916 0.062560946 0.1055018 -0.06518513
000380 da 82 d3 bd 4a c2 de bd e2 c2 b0 3d dc 8e 38 3d
       -0.10327692 -0.108769014 0.08630921 0.045058116
000390 20 ad 3a bc c8 67 cf bd e0 32 e8 bb d0 79 83 3c
       -0.011393815 -0.101272166 -0.007086143 0.016049296
0003a0 c4 cb 29 bd 7c c7 f0 3d 40 50 09 bb 00 84 1d 3c
       -0.04145409 0.117567986 -0.0020952374 0.009613991
0003b0 50 4c 76 bc 74 41 2b 3d 58 8d ae 3c 88 d4 b0 3d
       -0.015032843 0.041810468 0.021307632 0.08634287
0003c0 26 8a fb bd d0 93 70 3c 54 82 c8 3d c0 6b 03 3c
       -0.12282209 0.014683679 0.09790483 0.008021295
0003d0 70 7f 3c 3d e0 9a 41 3c 62 95 9b 3d 8c ce 46 3d
       0.04601997 0.01181671 0.07596852 0.048536822
0003e0 e6 8c fb bd b0 77 5a 3c d0 ec 8b bc 90 c5 2b 3c
       -0.122827336 0.0133342 -0.017080694 0.010484114
0003f0 12 d9 cb 3d a6 0e ba bd 80 a5 3a 3c 26 32 d6 3d
       0.09953512 -0.09084825 0.011391997 0.10458784

main.8.bias f4 [64]
000000 7f b4 d0 3c 9e d7 a6 bc 9c 70 01 3e e0 b6 b5 bb
       0.025476692 -0.020366486 0.12640613 -0.005545482
000010 00 1e d4 bd 69 59 11 bd 5c fb 93 bd 0a 09 e5 bd
       -0.103572845 -0.03548566 -0.07225677 -0.11183365
000020 70 5a ac 3d 4b cb bb 3d 69 85 bd bd cc b1 d3 3d
       0.08415687 0.091696344 -0.092539616 0.103366464
000030 55 72 9e bd ba a1 97 3d 66 14 b5 bd 04 5e 8c bd
       -0.07736651 0.07403894 -0.08841781 -0.068538696
000040 7d 7f c6 3d 4d 54 fb 3b 34 7d 10 be 42 53 1e 3d
       0.09692285 0.0076699615 -0.14110261 0.03865362
000050 ec 03 9d 3d c6 85 4b bd 40 a5 95 bd d8 ad ab 3d
       0.07666764 -0.049688123 -0.073069096 0.083827674
000060 c1 32 c5 3d 40 ed 9f 3d 44 56 3e 3d 18 99 cf bd
       0.09628821 0.07808924 0.046468988 -0.10136622
000070 48 90 8f 3d fa 72 17 3e e7 5a 99 3d a6 54 67 3d
       0.07009941 0.14789954 0.07488041 0.05647721
000080 63 5e b8 3d 3a d4 f2 bd a8 1f bf bd c4 22 5d bd
       0.09002378 -0.11856885 -0.0933221 -0.053988233
000090 70 68 d3 bd df a9 82 3d 40 b0 6a bd 9a cc de bb
       -0.10322654 0.063800566 -0.05729699 -0.0067992928
0000a0 a2 d3 d1 bd 6f b2 e8 3d 8e 80 b8 bb b3 c0 81 3d
       -0.10245444 0.113621585 -0.0056305593 0.063355826
0000b0 3c 07 60 bc a6 6d ce 3d aa ba 29 bd 2c e0 14 3c
       -0.0136736 0.100795075 -0.041437782 0.00908665
0000c0 48 25 9b 3d 08 dd bf 3d ff e8 bf 3d d0 c2 85 bc
       0.0757547 0.0936833 0.09370612 -0.016328245
0000d0 40 c2 05 3c 7c 87 45 bd d4 1b a3 bd e1 1b 50 3d
       0.008163989 -0.04822491 -0.07964292 0.050807837
0000e0 d9 1d 3c bc 8c 2d 14 bd 60 ab c2 3c f3 57 0f 3e
       -0.011481726 -0.03617625 0.023763359 0.13998394
0000f0 54 ad cb bc 6d b9 ea 38 15 a6 94 3d 93 5b b9 bd
       -0.024862923 0.00011192528 0.0725824 -0.090506695

main.10.weight f4 [1, 64]
000000 e5 76 d5 bd 8f 20 c4 3d 8d a5 18 be 4a 1f 98 3d
       -0.10423068 0.095765226 -0.14906903 0.07427843
000010 90 09 d1 3d 14 c1 15 bd ee de 83 3d 86 65 81 3d
       0.10206902 -0.036561087 0.06439005 0.06318192
000020 44 2c c0 bd b7 9c fb 3b 96 bd ac bd 3a b4 4d bd
       -0.09383443 0.007678594 -0.08434598 -0.050220706
000030 cf 1e 23 3d 1b e4 c9 bd 60 2f ed bd d4 25 fa 3d
       0.039824303 -0.09857961 -0.11581302 0.122142464
000040 bb b8 94 bb 96 6d 18 3c e7 c7 cb 3d 8f d6 43 3d
       -0.004538623 0.009303471 0.09950238 0.04781204
000050 2f fb 7b 3c 1a d6 0c 3d 10 7d 58 bc 57 99 a3 3d
       0.015379711 0.03438387 -0.013213411 0.07988232
000060 31 cc 2b be 54 aa 0c bd 00 6e a2 bd 55 8c 89 3d
       -0.16777112 -0.034342125 -0.07931137 0.06716219
000070 c5 33 c7 3d 8f 35 15 be 0c ec 4a 3d 94 e0 94 3d
       0.09726671 -0.14571212 0.049541518 0.072693974
000080 b9 0c 21 be 8c 6c 43 3d 30 12 95 3c 18 be e4 3c
       -0.1572751 0.04771094 0.018197149 0.027922675
000090 1a 92 de 3d a6 7d 0d 3d 7c 0a 24 3d 1b fc 43 3c
       0.108677104 0.034543656 0.04004906 0.011961962
0000a0 5e 64 9b bd 01 e6 c8 bd 58 2d 60 3d 72 22 a4 3d
       -0.07587503 -0.09809495 0.054730743 0.080143824
0000b0 c9 4a 40 3c d0 84 8d bd f3 83 2e 3b 42 11 64 3d
       0.01173658 -0.069100976 0.002662894 0.05568052
0000c0 4f c4 20 be e1 30 ad bd 36 24 ac bd 40 bb 9b bc
       -0.15699886 -0.084565885 -0.08405344 -0.019010186
0000d0 16 43 f4 bd 00 30 7d 3c 20 33 0c bc 29 e9 02 bd
       -0.11926858 0.015453339 -0.008557111 -0.03196064
0000e0 6c fc dc bc c6 f4 a3 bd 00 11 4f bc 63 9e 20 be
       -0.026975833 -0.08005671 -0.01263833 -0.1568542
0000f0 1b ea 6f bd 6e 73 b1 3d 5a dc c5 3d 43 4a 64 3d
       -0.05857287 0.086645946 0.09661169 0.055734884
