ex_05_implicit_models_recognition/code/output/model_best.pt (torch, 72226 bytes, 11 tensors)

main.0.weight f4 [64, 3]
000000 10 e5 80 3d f7 5a 2b be e6 4e 87 3e 59 95 7a be
       0.0629369 -0.16733919 0.26427382 -0.24471034
000010 94 0d 3b 3f e0 38 da 3c ef 93 50 bf 68 61 e8 3d
       0.73067594 0.026638448 -0.8147573 0.11346704
000020 f7 88 82 3e 44 1e 86 bf ca 81 8c 3d fa f7 87 3e
       0.2549512 -1.0477986 0.06860693 0.2655638
000030 61 b7 50 3f 6f 29 4d bf 0e a6 34 bd 5c 05 94 bd
       0.81529814 -0.8014135 -0.044103675 -0.07227585
000040 b8 4f d9 be 34 9f b5 3d f8 c3 f5 be d9 7d 71 3c
       -0.42443633 0.08868256 -0.48001075 0.014739477
000050 43 d1 90 3d 73 6e 58 3d cc 88 13 3f 8c 0b 3d bf
       0.070711635 0.052839708 0.5763061 -0.73845744
000060 a2 a2 4a bf e9 2c 58 be f1 1e 24 bf 6e 5e 9e be
       -0.7915441 -0.21110882 -0.6410971 -0.3093142
000070 90 0f 08 3d 80 97 d9 3d e6 24 d7 3e 3b 82 1c 3f
       0.033217967 0.106245995 0.4202034 0.61136216
000080 70 0c 1e 3f ee df ab 3d 77 0e 53 3e 88 55 2e bf
       0.6173773 0.083923206 0.20610987 -0.6809926
000090 0b 11 4c 3f c4 cb a8 3e d7 fa 92 bf 63 3f 87 3e
       0.79713506 0.3296796 -1.14828 0.26415548
0000a0 2e 82 fc bb d3 d0 24 3f ec c7 dc 3e 00 66 b1 be
       -0.0077059483 0.6438114 0.43121278 -0.34648132
0000b0 de 68 38 be 60 2a cc 3e b3 ad 14 3f c3 a4 78 bf
       -0.18008754 0.3987608 0.58077544 -0.97126406
0000c0 2e 50 a1 be 56 3e ce 3e 76 aa 81 be d7 b9 14 3f
       -0.31506485 0.40281934 -0.25325364 0.5809607
0000d0 dc ea 4a be 25 59 c7 3e bd 05 ae 3e 00 9a 14 bc
       -0.19816154 0.389352 0.33988753 -0.00906992
0000e0 b9 3e 11 3d 19 5d de be 7a 71 09 3f 36 69 2b bf
       0.035460208 -0.43430403 0.53688776 -0.66957414
0000f0 45 d0 52 3e 32 da 49 3d 39 b4 18 bf cb 2a 76 3f
       0.20587261 0.049280353 -0.5965 0.96159047
000100 3f 09 51 bf e0 6e 90 3e 34 ff 16 3f 80 b8 71 bc
       -0.81654733 0.2820959 0.5898316 -0.014753461
000110 a9 09 2f 3c 07 e5 81 be 2e 4d 5a 3f 40 50 91 be
       0.0106834555 -0.25370046 0.85274017 -0.28381538
000120 c9 8f ef 3d 91 99 8d 3d 6e 24 60 bf 6d f5 19 bd
       0.11697347 0.06914056 -0.8755559 -0.037587572
000130 86 72 92 bc d5 f1 c0 bf 5c 98 2f bd c7 66 5c 3f
       -0.017876875 -1.5073801 -0.04286991 0.86094326
000140 9a 5e 01 3e d7 d3 61 3f 3c 3b 18 3f 27 79 9a 3c
       0.12633744 0.88213867 0.59465384 0.018856598
000150 41 20 e3 3e 87 30 1e 3d 0b 2f 28 3f c3 af a3 3e
       0.44360545 0.038620498 0.6569678 0.31970033
000160 f9 03 d4 be a8 9b 34 bf a9 f8 64 3f 2f 77 51 3f
       -0.4140928 -0.7055001 0.89441925 0.81822485
000170 59 24 2b bd 15 62 bd 3e a4 69 ee be b0 47 1a bf
       -0.04178271 0.36988893 -0.46564972 -0.60265636
000180 2b 46 dd 3e bb c4 36 bf dc 8b cb 3e 0e b8 cf 3e
       0.43217596 -0.71393937 0.39755142 0.4057011
000190 e5 0e 58 bc ea 11 0a 3f 5b 8d 52 be 18 85 13 be
       -0.013187145 0.53933585 -0.20561735 -0.1440624
0001a0 f9 e9 d3 3e d6 e3 1b be 20 7d ae bc ba c4 98 3e
       0.41389444 -0.15223631 -0.021299899 0.2983759
0001b0 10 34 54 be 1d d0 c6 bd ed fd 0c 3f f2 bd 8f 3d
       -0.20722985 -0.09707663 0.5507496 0.07018651
0001c0 3c c4 04 bd 83 00 dd ba 74 aa 76 bd 65 21 80 bd
       -0.032413706 -0.0016861114 -0.06022115 -0.062563695
0001d0 33 e6 fc bd 8e 83 f8 be 8b 51 4c 3f 6d c9 f4 3e
       -0.123485945 -0.48537868 0.79811925 0.47809926
0001e0 47 db 10 be 54 66 91 bf 05 95 15 be bb 05 67 be
       -0.14146148 -1.1359353 -0.14607628 -0.2256078
0001f0 13 ab 85 be 40 e9 8f 3e 31 8e 2c 3f 31 5f d0 3e
       -0.26107082 0.28107643 0.67404467 0.40697625
000200 10 4c 69 3f ca f1 10 3f 9b 0b 12 3f ad cd 2a 3f
       0.9113169 0.5661894 0.5704896 0.66720086
000210 8b 1b a8 bc 4a ae 2c 3f 60 cb c5 3e 49 fb 1b bf
       -0.020520946 0.67453444 0.38631725 -0.60930306
000220 fd 3d 1e 3f d1 01 29 3d 40 93 b7 3c f9 56 97 be
       0.61813337 0.041261498 0.022409081 -0.29558542
000230 dc bf a1 3e 2c 6d 2f 3e 10 75 53 be 66 24 9f 3e
       0.3159169 0.1713149 -0.20650125 0.31082457
000240 ad e1 53 be e3 b6 e6 be 48 a9 85 3e c4 ee 8e 3e
       -0.20691557 -0.45061406 0.26105714 0.2791654
000250 76 5c 33 bb c3 e8 29 3f b0 2a c1 3e 17 9e e2 3d
       -0.0027368343 0.6637079 0.3772788 0.110653095
000260 79 df 87 3e c0 db 03 bd ee 23 de be f0 c1 f7 3e
       0.26537684 -0.03219199 -0.43386787 0.4839015
000270 50 ad 04 bf 8d d9 d0 3c 6d 53 42 bf 74 6f 3c bf
       -0.51826954 0.025494361 -0.7590855 -0.73607564
000280 b2 8a 7a bf 4c 83 e1 be 7a a9 0a bf 93 30 af 3d
       -0.9786788 -0.44045484 -0.5416485 0.08554187
000290 c5 39 18 bf b5 d9 3e bf 61 b9 2c bf 97 03 ad 3c
       -0.5946315 -0.74550945 -0.67470366 0.021119876
0002a0 11 0c 24 3f aa f5 c0 3e 71 cd b5 3e 21 fd 43 3e
       0.6408091 0.37687427 0.35508302 0.1913953
0002b0 34 77 8f bc 30 7b 1b bd 11 9d 71 bf 1a ff 64 be
       -0.017512895 -0.037959278 -0.9438029 -0.22362939
0002c0 13 69 8a 3e 17 a3 21 bf e2 17 1d 3f 31 cf 41 bd
       0.2703329 -0.6313948 0.6136457 -0.047316734
0002d0 dc e1 9d bd a9 1e d5 be 8c 8f d0 be e9 fd 56 bf
       -0.07709095 -0.41624954 -0.40734518 -0.83981186
0002e0 a4 0c 5e bf 71 86 19 be 41 21 96 bf e0 23 9e 3d
       -0.8673804 -0.14992692 -1.1728898 0.07721686
0002f0 3b 13 ad bd 66 8c 0e 3f 4c f3 d6 3d 28 a7 93 3c
       -0.084509335 0.5568298 0.10495624 0.018024042

main.0.bias f4 [64]
000000 26 9c 6a 3d 8c c5 f5 bd a8 c9 5a be d5 aa 1d be
       0.05727782 -0.1200057 -0.21365988 -0.15397198
000010 45 a1 c6 3c b5 86 48 3e 50 52 4c 3e d3 f0 39 3e
       0.024246821 0.19582637 0.19953275 0.18158273
000020 aa 73 96 3d de 9c d9 be 4c 8e 30 bd 92 34 03 3e
       0.0734628 -0.42502493 -0.043104455 0.12813023
000030 4e 9e a4 3e 55 8a e2 bd b3 12 05 bf 96 30 cb 3d
       0.32152027 -0.11061541 -0.5198166 0.099213764
000040 dc 73 fd bc 73 03 a4 3c 12 9d d2 3d 7a b5 a0 3e
       -0.030939035 0.020021176 0.10283865 0.31388456
000050 b9 2b c1 3e b5 2c dc bd de 40 11 3e 45 53 bd bd
       0.3772867 -0.10750715 0.14184901 -0.09244398
000060 ce 0d 33 bd 2a 70 ed bd 26 8c 6b be 68 90 cb bd
       -0.043714337 -0.11593659 -0.23002681 -0.09939653
000070 51 1a 81 3e 32 45 cc 3d a0 f1 11 bd d9 2e a6 3d
       0.2521539 0.099741355 -0.035630822 0.08114404
000080 77 b6 68 3e 4b af d4 bd f4 19 2d 3c 4c 53 08 bf
       0.22725855 -0.10384997 0.01056527 -0.532521
000090 b0 29 66 3c c6 30 49 bd 26 c7 27 bd ee bd cb bd
       0.014048025 -0.04911878 -0.040961407 -0.099483356
0000a0 f0 ff a5 be bf 38 cf be 76 a1 b4 bd 0f 06 57 3e
       -0.32421827 -0.4047298 -0.08819859 0.20998405
0000b0 8a 8a 81 3e 58 44 18 3e 2e 77 e8 be 58 fc e1 be
       0.2530101 0.14869821 -0.45403427 -0.44137836
0000c0 f9 4f 9a 3e 19 ae 5e be 68 79 a5 3e 21 4d 04 bf
       0.3013914 -0.217461 0.32319188 -0.5168019
0000d0 b5 61 84 3e ef 6b 05 bd 94 85 ba 3d 98 55 dc 3c
       0.25855795 -0.032573637 0.09107509 0.026896283
0000e0 d2 6c b5 3e b5 7e b6 3d cd 4a a3 be 84 60 fe 3b
       0.35434586 0.08910886 -0.31893006 0.0077629704
0000f0 4d f7 5f 3d 85 22 aa be fb 66 0c be 53 d7 bb be
       0.054679204 -0.3322946 -0.13711159 -0.36687717

main.2.weight f4 [64, 64]
000000 3f 5e c2 bd de 30 18 3f 21 28 6b be c6 c4 a0 be
       -0.09490632 0.59449565 -0.22964527 -0.31400126
000010 b1 23 48 3e 93 c6 bd bd 66 6a b1 bc 15 dd 9b 3c
       0.19544865 -0.09266391 -0.02165718 0.019026319
000020 56 41 22 be e8 72 48 bd 87 8e d1 3d 36 05 39 bc
       -0.15845236 -0.04893771 0.10232263 -0.011292746
000030 b7 ab 24 be ce 6b c5 bc 00 35 c8 3a 79 2f 0f 3e
       -0.16081129 -0.024099257 0.0015274584 0.13982953
000040 27 1c e4 3d ca 5b fb 3d 6f 6f bb bd 8f 9e f6 3a
       0.11138182 0.12273367 -0.09152114 0.0018815565
000050 fc f1 32 be 09 55 25 3f b1 05 4e 3d 39 fb 36 3f
       -0.17475122 0.6458288 0.050298396 0.71477085
000060 c1 5f 49 3e 9a c3 07 3d 4e 73 62 3f 56 38 c0 3e
       0.19665433 0.033145525 0.8845719 0.3754298
000070 63 68 cc bd f5 07 7d bd 5c cb d9 3e f8 92 bc 3d
       -0.09980848 -0.061775167 0.42537963 0.092077196
000080 c0 e2 8c 3d 93 2d b7 bc 70 20 cc bc e6 96 bd bd
       0.06879187 -0.022360599 -0.024917811 -0.09257297
000090 23 76 9f 3d 05 77 b3 bd c7 0a 77 3d 1d b9 03 3e
       0.07786205 -0.087629355 0.060313012 0.12863584
0000a0 78 3b 66 3f 1b c9 e8 bb c3 49 9d 3d 58 55 e6 3c
       0.8993449 -0.0071040518 0.076800846 0.028116867
0000b0 d7 c9 04 be fd d5 9f 3d 80 06 9b 3d b8 d8 a9 bd
       -0.12967621 0.07804487 0.07569599 -0.08293289
0000c0 98 8f e2 3c b9 a3 79 3e 7a 03 db bd bc f3 1e bd
       0.027656361 0.24378861 -0.106940225 -0.038806662
0000d0 3f a3 cc bc b0 b6 11 3f fb 53 1b be cc 14 33 3f
       -0.024980186 0.56919384 -0.15168755 0.6995361
0000e0 38 70 79 bc bb 24 86 3d 63 a6 d0 3e 57 3a 07 3f
       -0.015224509 0.065499745 0.40751943 0.52823395
0000f0 eb b3 d7 bc b3 22 d5 3e 48 d4 c8 bd 07 26 94 bd
       -0.026330909 0.41628036 -0.098061144 -0.07233816
000100 06 1d 28 3c ae 2d 7b 3c 69 c7 05 be d8 e7 80 3d
       0.010260826 0.015330715 -0.1306435 0.06294221
000110 51 7d 4b bd a5 7f f8 3c 78 4b 0d be 50 26 2c bd
       -0.049680058 0.030334303 -0.1379832 -0.042028725
000120 1a 0e b8 3d e0 d8 d2 bb 01 f6 a8 bd bb bf 05 be
       0.08987065 -0.006434545 -0.082500465 -0.1306142
000130 0f 73 27 bd 89 d0 7a bc f8 f7 f3 3c 21 21 8b 3d
       -0.040881213 -0.015308508 0.029781327 0.06793428
000140 29 45 dc 3d 16 21 a7 39 1f 3a 67 bc 58 35 03 3d
       0.10755379 0.00031877373 -0.014112978 0.032033294
000150 8e 6c 08 be 7e 7a 58 bd 97 dd 96 3c bb c7 fc 3a
       -0.1332266 -0.052851193 0.01841621 0.0019285599
000160 b6 d3 fd bd c3 ab ce 3b 8e 28 8b 3d 54 2d e2 bd
       -0.12393896 0.0063070967 0.067948446 -0.11043802
000170 88 a9 94 bd 8e 5b c1 bd 5f c0 4c 3c 46 29 f9 bd
       -0.07258898 -0.09441291 0.012497037 -0.121660754
000180 30 69 93 3d fd 4f 67 3c 99 60 b1 bd 8a af d4 3d
       0.07197797 0.014118192 -0.08661003 0.10385044
000190 0f c1 aa 3c 65 8a ae bd 9f c1 00 be 6c 43 12 be
       0.02084401 -0.085224904 -0.1257386 -0.14283532
0001a0 f1 ca 3f 3d 28 b1 73 3d a9 c6 c1 bd fb 10 bf 3d
       0.0468244 0.05949512 -0.094617195 0.09329411
0001b0 8e d8 70 3d da 6c ed bd 08 d3 cf 3d 3e 87 cb bd
       0.058800273 -0.115930274 0.10147673 -0.09937905
0001c0 4b 5d 93 3d 65 34 d4 3c d5 ce b4 3d 04 7b 56 bd
       0.071955286 0.02590389 0.088285126 -0.05236341
0001d0 aa 01 a1 3d ca fe bf bd ed 5f 4c bd f7 75 2b be
       0.078616455 -0.09374769 -0.04989617 -0.16744219
0001e0 b5 d2 df bc 59 98 cc bd 01 ec 7c 3d 90 2f af bd
       -0.027322153 -0.099899955 0.06174851 -0.08553994
0001f0 8a 2c 0e be bc 1e 14 3d 2b de b5 bd 70 d3 53 3c
       -0.13884178 0.036162123 -0.08880266 0.012928829
000200 3e 08 de 3d 93 96 41 bc 1d e0 8f bf 4f a4 1b bf
       0.10841416 -0.011815685 -1.1240269 -0.6079759
000210 fc 04 a7 3d e7 03 73 3d 14 9b ff bd ed cf 97 3d
       0.081552476 0.059329893 -0.12480751 0.074127056
000220 96 05 e7 be 90 98 64 3d 63 cf cb 3e 6c 09 31 be
       -0.4512145 0.055809557 0.3980666 -0.1728875
000230 0c 13 5e be 8b 67 cd 3c c8 e0 25 3d 3b c2 9f be
       -0.21686953 0.025073787 0.04049757 -0.31202874
000240 da 38 80 3e 2e a5 19 3e 53 ac 2c 3e c7 44 57 bd
       0.25043374 0.15004417 0.16862611 -0.052555826
000250 d7 9c 91 ba 43 cc d6 bc 5c 3e b7 3d 34 8b 01 3e
       -0.0011109364 -0.026220446 0.08947441 0.12650758
000260 d2 ea b0 3d ca f5 c7 be d7 2c 60 be 53 c3 2b 3d
       0.086385384 -0.3905471 -0.21892105 0.041934323
000270 e9 69 49 3d c7 42 27 3d 5f 50 88 be 57 f4 07 be
       0.04917327 0.04083517 -0.26623818 -0.13276802
000280 2e e2 0d 3e 70 d1 02 be 83 d8 a5 bd 32 ff d0 bd
       0.13855812 -0.12775207 -0.08097937 -0.10204925
000290 d0 62 22 3d 6b 99 96 3d 2b 39 34 3d 0e a5 a2 bd
       0.039645016 0.07353481 0.043999832 -0.07941638
0002a0 e0 42 08 bf 28 86 de 3c 85 00 12 3f 1e e4 31 3e
       -0.53227043 0.02716358 0.5703204 0.17372176
0002b0 70 20 92 bd 81 b7 4d be 00 96 fe 3d f0 6f 13 bd
       -0.07135093 -0.20089532 0.12430954 -0.035995424
0002c0 9c a8 b7 3d e4 21 c7 be d2 6e cc 3c 40 82 8f 3c
       0.089677066 -0.38893044 0.024955187 0.017518163
0002d0 a0 ad 7e bd 82 22 c1 3d d7 47 53 be d4 fc 45 be
       -0.0621773 0.0943041 -0.20632873 -0.19334728
0002e0 9b 7c 31 3e 2a 03 c8 bc 6f 07 77 be 13 4e 6b be
       0.1733269 -0.024415571 -0.2412393 -0.22979002
0002f0 8e 05 8a bd 1c 1b 00 3f 93 09 8e bf 5f 29 ff 3d
       -0.06739341 0.50041366 -1.1096672 0.12459063
000300 6c 5e 13 be 7a 99 84 3d 41 18 09 3e 87 5b e4 bd
       -0.14391488 0.06474586 0.13388158 -0.1115027
000310 5f ef 23 3d 9b 3f f9 ba ad 38 22 be 2f ca 2c 3d
       0.040023204 -0.0019016148 -0.15841933 0.042185005
000320 16 a6 6f 3a 94 cf 7e 3d 07 af 49 3e e4 b1 09 bd
       0.0009141875 0.06220968 0.19695674 -0.033616915
000330 2c 6a 4c bd 92 f8 ab 3d f0 d3 26 bc 06 00 06 be
       -0.04990594 0.083970204 -0.010182366 -0.13085946
000340 fd cb bf 3d f8 0e 1d 3e 89 bd 29 be 7e a0 0e be
       0.093650796 0.15337741 -0.16576208 -0.1392841
000350 8f 6c 8f bd ea 7e b8 3e 05 d0 f1 3d 29 35 db 3d
       -0.07003128 0.36034328 0.11807255 0.10703499
000360 3e 2e d7 3c 77 ab 11 3e dc 31 8d 3e 01 4e 1e 3e
       0.026267167 0.14225565 0.27577102 0.15459444
000370 61 af 9a bd 7c 53 f9 bd cc b7 c9 3c 7d 46 15 3d
       -0.07552982 -0.121741265 0.024623774 0.036444176
000380 f8 99 e9 bd ef bc 7e 3e bd 92 96 bd ce a2 9b 3d
       -0.1140632 0.2487676 -0.07352207 0.07599412
000390 a1 49 9c 3d 72 41 65 3d ba 04 50 be 43 ff 0e 3e
       0.07631231 0.055970617 -0.20314303 0.13964562
0003a0 be 95 f7 b9 4e 1d ca 3d a4 b9 2b 3e b6 cc c4 bd
       -0.00047223078 0.09868871 0.16770035 -0.09609358
0003b0 06 2c 32 bd 34 cc 0f be e2 26 8d bd 30 75 9b bc
       -0.043499015 -0.14042741 -0.06892182 -0.018976778
0003c0 f2 dd 3b be 61 42 86 3f be 74 49 bd ce 40 dd 3d
       -0.18346384 1.0489007 -0.0491836 0.10803376
0003d0 de 2e 66 be 77 97 a9 bd 32 7d 0e 3e 53 f7 ed 3d
       -0.22478816 -0.08280843 0.13914946 0.11619439
0003e0 98 c5 2d be 47 cd a4 bc 1b 00 c3 3d 13 53 b1 3d
       -0.16969907 -0.020117415 0.095215045 0.08658423
0003f0 55 87 42 be c7 a1 f5 bd 40 8b 73 be 07 85 15 bd
       -0.18996938 -0.11993747 -0.23783588 -0.036503818

main.2.bias f4 [64]
000000 c1 a2 61 be f1 1b 6b bb ad f7 92 3d 41 c9 24 be
       -0.22034742 -0.0035874809 0.07176147 -0.16092397
000010 c8 ad 78 bd 98 be d9 bd fb 9e 59 3d 32 05 e9 bd
       -0.060712606 -0.10632056 0.05313013 -0.11377944
000020 ae 76 14 bd 84 73 21 be 4b 94 ba bd fc 8d 82 be
       -0.036245994 -0.15766722 -0.09110316 -0.2549895
000030 ba 3f 2f be 47 cb e7 bd da 46 5e bd 54 8e 36 be
       -0.17114154 -0.11318069 -0.054266788 -0.17827731
000040 2b a3 bb bd 3b bb e6 bd 42 98 f0 bd 04 8c 9e bd
       -0.09161981 -0.1126618 -0.11747791 -0.077415496
000050 e5 5f d6 bc e4 85 28 bd e7 b6 61 3d 30 7f 16 bd
       -0.026168773 -0.041143313 0.05510607 -0.03674239
000060 f4 57 aa 3d f3 dd 57 bd e8 ca 03 3e 18 1f d4 bd
       0.08317557 -0.0527019 0.12870371 -0.10357493
000070 6a 67 4e be 13 0f 2f 3d 7e 0a f6 bd 18 9b 93 bd
       -0.20156637 0.042738985 -0.1201372 -0.07207316
000080 ad fe c2 3c 40 5b 14 bd d6 6a ac 3d 17 73 5c be
       0.02380308 -0.036219835 0.08418815 -0.21528278
000090 13 3a ca bc 77 11 b3 bc b5 d8 7f 3c 57 b3 82 be
       -0.024685895 -0.021858914 0.015615632 -0.2552745
0000a0 80 8b 09 bd 8b d1 9a bd 7b f6 d9 bd e2 62 27 be
       -0.033580303 -0.075594984 -0.106427155 -0.16346315
0000b0 78 5d b2 bd bf e1 e7 bd df c4 81 bd f0 ea 77 3b
       -0.08709234 -0.113223545 -0.06336378 0.0037829243
0000c0 0e 50 03 3d 44 30 37 be 63 b5 a9 3d b5 47 d6 bd
       0.032058768 -0.17889506 0.0828655 -0.10462896
0000d0 ca 4b 01 be 0a 5c a4 3c ea 66 2e bd 44 7e bb bd
       -0.12626567 0.020063419 -0.042578615 -0.09154943
0000e0 48 32 cc 3c d8 ef b2 bd c7 86 2d be bb f0 3a be
       0.02492632 -0.08737153 -0.16945945 -0.18255894
0000f0 db c5 71 bd 99 18 11 be 9e 9f 99 3c 3c d8 77 3c
       -0.05902658 -0.1416954 0.01875287 0.015127238

main.4.weight f4 [64, 64]
000000 d8 af 83 3e 90 47 ab 3c e9 66 91 bb fe 83 93 3d
       0.25720096 0.020908147 -0.0044373167 0.0720291
000010 ba 76 29 be e5 08 8a 3f 9c d0 83 bd 68 3a 9f 3c
       -0.16549197 1.0783964 -0.064362735 0.01943703
000020 ba fb 3b 3e 4a d9 94 be 69 cc a7 bd b8 8d 95 3e
       0.18357745 -0.29072028 -0.08193285 0.29209685
000030 5d 17 17 bd 06 9b 01 3e 1e a1 29 be 6a 34 10 3f
       -0.036887515 0.12656793 -0.16565368 0.5632998
000040 70 d5 e1 3e 39 f0 6e 3e db 47 d2 3d dd fe 46 3e
       0.44108152 0.23333825 0.102676116 0.1943316
000050 9b 98 2e be 1b ed 9e be bf 38 d5 bd 20 2d 85 bd
       -0.17050402 -0.31040272 -0.10411214 -0.065027475
000060 dc 33 7a 3d 4a e6 f0 3d ba 29 b4 bd aa 48 de ba
       0.061084613 0.11762674 -0.08797021 -0.0016958911
000070 99 7a 0c 3e 8d 96 ff bd ac 72 39 3d a0 4b 55 bd
       0.13718642 -0.12479887 0.045275375 -0.052074075
000080 40 43 3d 3c 61 37 09 bc 28 04 b7 3d 7b c4 52 3e
       0.011551678 -0.00837502 0.089363396 0.20582764
000090 21 41 d3 bc 07 6b ab bd 28 4f 90 bd 94 a4 2b 3f
       -0.025787892 -0.08370023 -0.07046348 0.67048
0000a0 e6 de 36 3e 54 fb 20 3e 02 3b ba bc 77 59 3b be
       0.17858467 0.15720874 -0.022733215 -0.18295847
0000b0 68 74 dc 3e 8d 2a 3b 3d 39 3e ac 3d 8b 09 7f bc
       0.4305756 0.045694876 0.084103055 -0.01556624
0000c0 d7 63 b1 3c 57 0b be 3d 5a e0 01 be ee 37 f3 3c
       0.021654053 0.09279507 -0.1268324 0.029689755
0000d0 79 f0 c9 bd 4a a2 19 bd 0e ff 7f 3d 75 dc 51 bd
       -0.0986032 -0.037508287 0.0624991 -0.051235635
0000e0 06 2f e0 bd a0 2f ff 3b 8a cf 37 3d b5 c4 b8 bd
       -0.10946469 0.0077876598 0.04487566 -0.09021894
0000f0 dc 56 ca bd e1 62 4e 3e 63 2b 38 3e 5d 70 55 be
       -0.09879848 0.20154907 0.179853 -0.20843644
000100 3b 75 2d 3c 10 03 44 bc cd e5 25 bd cc 95 5a bd
       0.010587032 -0.011963621 -0.04050236 -0.053365514
000110 cb bb 98 bd 79 74 eb 3c 38 3a c7 bd d8 e5 7b 3d
       -0.07457694 0.028742062 -0.09727901 0.061498493
000120 53 c3 b7 3c 26 b4 a9 3b 74 43 ef bd 1a e5 19 be
       0.022432005 0.005178946 -0.116827875 -0.15028802
000130 07 b6 74 3d 46 66 c5 bd ad d8 26 3c 63 6d c3 bd
       0.059743907 -0.09638648 0.0101834955 -0.09542348
000140 b2 a9 84 bd fc 1e 78 bd 4a 9c 4c 3d ce 9f e1 bd
       -0.06477679 -0.060576424 0.049953736 -0.110168085
000150 63 d8 58 3d 31 f5 92 3d bc 94 e7 3d 88 85 1d 3d
       0.052940737 0.07175673 0.11307666 0.038457423
000160 1e 39 c7 3d 1a 15 cf 3d 74 6b 95 3c 95 d5 98 3b
       0.09727691 0.10111447 0.018239714 0.004664133
000170 18 a8 42 3d ae cc a7 bd d4 b3 37 3d 40 1a 70 bd
       0.047523588 -0.081933364 0.04484923 -0.058618784
000180 90 21 fa 3c 92 c9 1a be c8 50 8c bd 4c 13 ef bd
       0.030533582 -0.15115955 -0.06851345 -0.116736025
000190 93 9a 55 3d 14 06 14 be 39 9b 09 3d 89 c7 58 bc
       0.052149367 -0.14455444 0.033595297 -0.013231167
0001a0 0f 98 f4 3c a5 88 72 ba b8 a5 b4 3d 8f 69 09 be
       0.029857663 -0.0009251929 0.08820671 -0.13419174
0001b0 3d 03 0d be 9e 1f 78 3d 46 5f 8a bd ab 6f 6d bd
       -0.13770767 0.060577027 -0.06756453 -0.057967823
0001c0 58 59 97 3c 3a c3 86 bd 59 f0 8d 3d ac 99 46 bd
       0.01847522 -0.06580205 0.06930608 -0.048486397
0001d0 6e e7 c7 bd 00 97 90 3c 0d e2 94 bb 56 ef f6 3d
       -0.097609386 0.017650127 -0.004543549 0.120573685
0001e0 e2 93 da 3d 10 82 79 bc c7 c9 93 3d 90 72 80 3d
       0.10672738 -0.015228763 0.0721622 0.06271851
0001f0 2f 83 ca bd 66 79 02 be bf e8 60 bc a8 ee fb bd
       -0.098883025 -0.12741622 -0.013727366 -0.123013794
000200 04 1c 9c 3d cc 7a e7 3d 62 2c bb bd ec 3c b5 bc
       0.07622531 0.113027185 -0.09139325 -0.022123776
000210 97 fa 17 be 10 57 7d 3f 34 02 8f 3d 63 68 06 bd
       -0.14841686 0.9896097 0.06982842 -0.032814395
000220 31 60 99 bd 6c e8 f2 3e 6d 6c a8 bd b6 ca d5 be
       -0.0748905 0.4744295 -0.082238056 -0.4175622
000230 3d f9 41 3d d3 10 b3 3d c7 d9 44 3d d5 75 f7 3d
       0.047356833 0.08743443 0.04805925 0.120830216
000240 ad c9 d5 bd 28 28 13 be 60 44 35 bb 26 06 e6 3d
       -0.10438857 -0.14370787 -0.0027659163 0.112316415
000250 32 7e 86 3d 8f 49 1e bf 5f 7d 68 3d 2c ae 67 bd
       0.065670386 -0.6183099 0.05676019 -0.056562588
000260 d4 27 99 bd ef cd 78 bd 76 13 74 be a9 95 88 bd
       -0.074783 -0.06074327 -0.23835549 -0.066691704
000270 3e 33 ef 3d 98 33 7f bd d1 31 91 bd 66 5c e0 3d
       0.116796955 -0.062305063 -0.0708958 0.109551236
000280 53 28 3a be 47 4a 9f be 72 89 9c bd ad 7f b0 be
       -0.18179445 -0.31111357 -0.07643403 -0.3447241
000290 51 94 84 3c 8f 9c 96 3c e1 43 49 3d 3c d4 d2 bc
       0.016184004 0.0183852 0.049137 -0.025735967
0002a0 6c 31 63 bd b3 7c 9c bd 55 d0 48 bd 0f c7 57 3c
       -0.055467054 -0.07640972 -0.049026806 0.013170018
0002b0 48 1f d6 be 65 03 4a bd 56 9f da bd 97 2f 92 3e
       -0.4182074 -0.049319644 -0.10674922 0.28551933
0002c0 e0 8c 37 bd df b1 df bc 85 53 c9 be bf ef 84 3d
       -0.044812083 -0.027306495 -0.39321533 0.064910404
0002d0 89 12 1a bc 65 14 e2 3d d5 56 8a 3d e9 20 10 bd
       -0.009403833 0.11039046 0.06754843 -0.035187636
0002e0 b4 67 8b bd 98 11 0e bd 73 10 64 3e e1 d2 f6 bd
       -0.06806889 -0.034684747 0.222719 -0.12051941
0002f0 ac 79 05 3c 99 63 2a 3d 8a c9 5f be d3 6c 4c bd
       0.008146685 0.04159889 -0.21854225 -0.04990847
000300 aa fa 66 3e 3f 38 f4 bd 72 79 01 bc e0 87 a1 3c
       0.22556558 -0.119247906 -0.00790249 0.01971811
000310 6d 9d a7 ba 30 d9 39 be 4d 94 f7 3b 10 88 3a bd
       -0.0012788005 -0.18149257 0.0075555206 -0.045539916
000320 ce d6 e1 bd d3 d3 a5 be f3 0a 10 be 82 7f 51 bf
       -0.11027299 -0.32388172 -0.14066677 -0.81835186
000330 78 cd 65 3b 3c 61 63 be 44 86 ac bd 3f 21 36 3e
       0.0035065096 -0.2220506 -0.08424047 0.1778612
000340 0d 29 a7 3e 45 2e 32 be 56 c3 73 3c 62 66 a2 3d
       0.32648507 -0.17400463 0.014878115 0.07929684
000350 0a 40 e4 bd a2 b4 ea be ff a8 89 bd 80 0a fd ba
       -0.11145027 -0.45840937 -0.067216866 -0.0019305497
000360 b8 a1 4e 3d 39 35 71 3d 72 d8 ab bb 5f b7 a0 bc
       0.050447196 0.058888648 -0.005244308 -0.019618688
000370 c2 6d 91 3d ca 61 2d 3d c9 d7 c3 3d 90 a9 d5 bc
       0.07101013 0.042329587 0.09562642 -0.02608183
000380 0e 4a 6e 3d f9 3b f3 3d bd 77 c4 bd d8 fc a0 3e
       0.058176093 0.11876673 -0.09593151 0.31442904
000390 a3 12 33 3e 24 89 14 3e 00 04 a7 be d1 be bf 3e
       0.17487578 0.1450544 -0.3262024 0.3745027
0003a0 88 ec 42 3e c4 08 f4 bd b3 d9 a2 3d 82 af 8f 3e
       0.19035542 -0.119157344 0.07951679 0.2806359
0003b0 e3 f5 95 bf d2 57 f9 3c ec b9 b8 3d 68 ea af be
       -1.1715664 0.030437384 0.09019837 -0.34358525
0003c0 be 07 43 3c 5f 2d 00 bc 81 16 25 3e c0 4c 89 bd
       0.011903701 -0.007823317 0.16121866 -0.06704092
0003d0 bb f2 7f bd 5a 9d 90 3d 7a e2 1f be f5 23 9d 3d
       -0.062487345 0.070612624 -0.15613738 0.07672874
0003e0 5c 54 a9 bd 28 d0 fc bc cc c7 02 3f c9 8c 18 3d
       -0.082680434 -0.030860975 0.51086116 0.03724364
0003f0 fe d0 03 be 9f 11 a4 3c c6 ff 16 3e 1e 1b 1c 3c
       -0.12872693 0.020027934 0.14746007 0.00952795

main.4.bias f4 [64]
000000 15 d6 41 be 58 a2 b7 bd 88 34 d7 bc a9 2a 42 3c
       -0.18929322 -0.089665115 -0.026270166 0.011850991
000010 13 03 1c 3d dd e1 24 3e 03 dc d1 bd bf c6 65 bd
       0.03808887 0.16101785 -0.10247042 -0.056097742
000020 6a 6a 96 3e 7b d8 c1 bd 51 3e 95 be 44 6f 66 3d
       0.29378062 -0.094651185 -0.29149106 0.056258455
000030 f3 be 8d be c7 bb 47 bd 44 5d 8d be f3 4e 0b be
       -0.27684745 -0.048763063 -0.2761022 -0.13604335
000040 3a 36 9b bd 94 6b 34 bd b6 de 1c bd 3f 80 87 3e
       -0.07578702 -0.044047907 -0.03829833 0.26465032
000050 9b 85 09 3e 52 95 c6 3c 13 80 2e 3e 48 a4 96 be
       0.13429873 0.024241123 0.17041044 -0.29422212
000060 c6 80 fc bd 71 ee a9 bd f3 e6 2a 3e 1e f4 aa bd
       -0.12329249 -0.08297432 0.16689663 -0.08347343
000070 5f ee aa be 06 b2 2a bd 9e 8c 3d bd ce 77 eb bd
       -0.33384988 -0.041673683 -0.04627668 -0.1149746
000080 2f 3c dc bd 9c c8 63 3e 6b b4 c1 3e 18 6e 05 be
       -0.107536666 0.22244495 0.3783296 -0.13030279
000090 d7 8c 6a bd 24 76 48 ba 60 ca 4d be 4b bf 97 bd
       -0.05726322 -0.0007646999 -0.20096731 -0.07409533
0000a0 91 66 22 be 11 4e 83 3c 46 88 16 3e 5a 08 51 be
       -0.15859438 0.016028436 0.14700422 -0.20413342
0000b0 75 f2 d0 bd 01 43 c1 3d 5f e7 4c 3e 06 11 8e be
       -0.10202495 0.09436608 0.20010136 -0.27747363
0000c0 32 ce 2e bd 5b 55 44 be 67 94 b8 bd 4a 2e 81 bd
       -0.042677112 -0.19173186 -0.090126805 -0.06307657
0000d0 da 6b 98 be d2 a1 83 bd 5c 28 04 be 0d e6 96 bd
       -0.29769784 -0.06427349 -0.12906021 -0.073680975
0000e0 8b 0b 92 bc 80 d1 ee bd 3f 5c 8e bd d5 5a 80 3d
       -0.01782777 -0.11661053 -0.06951188 0.06267325
0000f0 03 36 84 3e e8 8d 02 be ae df 6e bd 70 f0 91 3e
       0.25822458 -0.12749445 -0.058318786 0.28503752

main.6.weight f4 [64, 64]
000000 9e 5c da bd 48 d8 d0 bc a5 5b a3 3d 91 36 29 3c
       -0.106621966 -0.025493756 0.07976464 0.010327951
000010 ad d9 34 3b 57 3e b6 bd ef 82 5d bd 10 19 23 3c
       0.0027595565 -0.08898609 -0.054079946 0.009954706
000020 80 8d 1b 3b 90 7c ef 3d 3a 1f 0e 3d 80 56 69 3d
       0.0023735464 0.1169368 0.03469775 0.05696726
000030 34 1c ba 3d b0 c0 75 bc bf 4c f8 3c f4 40 f6 3d
       0.090874106 -0.014999554 0.030310033 0.120241076
000040 80 41 d4 3d d4 5b 53 3d bf d3 6d bd 40 16 6c 3c
       0.10364056 0.051601246 -0.058063265 0.014409602
000050 ca fe ac bc c9 fa 04 3c 60 58 9b 3c 84 65 d4 3d
       -0.021117587 0.008116432 0.018963039 0.10370925
000060 a0 83 d0 bd da 30 ee bd a1 a9 c2 bd 50 be b7 3d
       -0.101813555 -0.116304114 -0.095050104 0.08971846
000070 ef 28 ac 3d b0 00 f2 bc 8f 69 e1 bd e0 33 b7 3b
       0.08406245 -0.029541343 -0.11006462 0.005590901
000080 4e a1 8e bd 74 aa d1 bd 68 75 c3 bd b2 01 db bd
       -0.0696436 -0.102375895 -0.09543878 -0.10693683
000090 14 71 38 3d be 97 cf 3b b2 ec 91 3d 5a 1c df 3c
       0.045029715 0.0063352278 0.07125224 0.027235199
0000a0 e2 d0 d7 3d c4 ca 4b bd f2 b2 f0 3d a4 ae 3f 3d
       0.10537888 -0.04975392 0.11752881 0.04679741
0000b0 89 d7 c6 3d 8c f9 54 bd e4 5e 50 bd 5d 35 96 3d
       0.09709079 -0.0519958 -0.050871745 0.07334397
0000c0 80 ea 01 bd d6 1f 86 3d b0 2e 1b bd 96 d6 8a bd
       -0.031717777 0.06549041 -0.03788632 -0.0677921
0000d0 a4 19 a3 bd b0 2f 16 3d 90 06 fc 3d 45 bd 86 bd
       -0.07963875 0.036666572 0.12305939 -0.06579069
0000e0 33 76 86 bd 27 4e da bd 4a 81 92 3d cc 53 f5 bd
       -0.065655135 -0.106594376 0.07153566 -0.119788736
0000f0 3a 6a bf bd bc 82 1d bd c3 8c 79 3d 80 4d a5 bd
       -0.09346433 -0.038454756 0.060925256 -0.080714226
000100 67 96 3b 3e 47 bb 02 3b 80 6f a6 3e a2 77 92 3e
       0.18319093 0.0019948052 0.32506943 0.28606898
000110 9f f0 80 3c cf 52 84 3c 9e 87 5d bd 11 d7 1e 3b
       0.015739737 0.016152767 -0.054084413 0.0024237076
000120 8c 1a 3f bf 1c 50 41 3d 38 a6 29 3e 19 56 2b bf
       -0.7464988 0.04719554 0.16567314 -0.6692825
000130 8d ee e8 3e 73 54 fc 3d 3a 82 bf 3e 52 dc 42 bc
       0.454945 0.12320795 0.37404042 -0.011893349
000140 d8 51 64 3d b3 17 38 3d 8c d4 34 3d 61 6f 02 bd
       0.055742115 0.044944476 0.044148013 -0.0318445
000150 95 a2 0d 3f 98 ab 21 3e f4 6d 81 bd 70 88 60 3e
       0.55326205 0.15788114 -0.063198 0.21927047
000160 44 26 d4 bc d1 56 e1 3d d9 4e ed 3e 94 2e f8 bd
       -0.025897153 0.11002887 0.46349218 -0.12118259
000170 90 d0 7f 3e 54 69 b5 bd 9d 60 32 bc 2f 35 04 3e
       0.24981904 -0.0885798 -0.010887292 0.12910913
000180 e8 06 b0 3d d8 6b 52 be 79 b2 61 be 2e 57 a9 3d
       0.08595067 -0.20548952 -0.22040738 0.08268581
000190 86 aa bc 3d 9c 14 ef 3d 2a ea 06 3d aa 80 b7 bd
       0.09212212 0.11673853 0.03293816 -0.089600876
0001a0 36 5b 02 3d 49 a6 86 be 60 03 1c 3f bc 2e 53 bc
       0.031825267 -0.2629874 0.6094265 -0.01288956
0001b0 7f 9e 07 3e 96 be 27 3e 42 3c 25 3f 65 6f 89 3e
       0.13244055 0.16381297 0.6454507 0.268428
0001c0 a3 27 b2 3c ac 16 c3 3e bd e7 af bd 29 6d 5b 3d
       0.021747416 0.38103235 -0.085891224 0.0535709
0001d0 92 2d 4a be 24 84 0f 3d cd 41 cd bd b7 24 0b 3e
       -0.19743946 0.03503813 -0.10022316 0.13588224
0001e0 a5 de 2b 3e a4 f7 11 3e 6d b5 0a 3e 62 2e ea 3d
       0.16784151 0.14254624 0.13545771 0.11434628
0001f0 1f 12 d0 3c 5f b0 09 bd 5e 40 16 3d 68 53 13 be
       0.025399266 -0.033615466 0.03668248 -0.14387286
000200 f4 29 b9 3d 3c f2 39 bd dc 89 33 3e b1 fe 8b 3d
       0.09041205 -0.04539703 0.17533058 0.06835688
000210 de 72 21 bd 2d 36 cb 3d 51 d8 8a 3d 24 ef 74 3b
       -0.039416187 0.099224426 0.0677954 0.0037373984
000220 d4 5a b0 be 9f 9d 1e 3e 1b cd 52 3e 53 74 0e bf
       -0.34444296 0.15489815 0.20586054 -0.55646247
000230 08 39 8e 3e 7a 61 b6 bd e9 eb ab 3d dc 48 bb 3d
       0.27777886 -0.08905311 0.08394606 0.09144756
000240 6c 03 7d 3d 7d 9a 1d 3e c7 76 b4 bc b2 ad 62 be
       0.06177084 0.15390964 -0.022029294 -0.22136572
000250 37 57 20 3f ef b8 71 3e 56 ec ac be e9 f7 04 3e
       0.6263308 0.23605703 -0.3377406 0.12985195
000260 89 9a 6d 3b 54 de 41 3e 12 2d d1 3e b9 39 8a 3d
       0.003625544 0.18932468 0.40854698 0.06749291
000270 4a e4 ce bc e0 ad c6 3d ce 72 32 3e d8 5d 8d 3c
       -0.025255341 0.09701133 0.17426607 0.017256662
000280 e4 cb c3 3d 75 44 b4 be 36 2f d8 be 36 6a 62 3d
       0.095603734 -0.3520848 -0.4222352 0.055277072
000290 40 01 21 3d 60 7d 7b 3e 91 24 47 3e ac 73 77 bd
       0.039307833 0.24559546 0.19447543 -0.060413048
0002a0 d0 10 a1 bd e2 3a 89 bd 31 d4 d6 3e ec 9e f8 3c
       -0.07864535 -0.06700684 0.41958764 0.030349217
0002b0 12 d1 15 be 35 77 a8 3e ea 45 fe 3e 0f fb 30 3e
       -0.14630535 0.32903448 0.49662715 0.17283271
0002c0 31 43 ad bd 09 64 61 3e 5e 07 ac bd bc 49 d6 3c
       -0.08460081 0.22010817 -0.08399843 0.026158206
0002d0 fa ce 9b be b0 29 58 bc 35 03 f5 bd 0f 51 23 3d
       -0.30431348 -0.013193533 -0.11963502 0.039872225
0002e0 c3 fe e5 3d 1b 6a 4b bc 15 25 88 3d 9b 8a 9c 3e
       0.112302326 -0.012415434 0.06647698 0.30574498
0002f0 c0 ce 42 be 69 7b 79 bc b6 e2 df 3d e3 bb ec be
       -0.19024181 -0.015227177 0.109319136 -0.46237096
000300 89 09 18 3d a0 94 ed bd 55 b3 ae 3d 38 ab 81 3e
       0.03711847 -0.116006136 0.085302986 0.25325942
000310 83 3a 83 3e ec c8 07 be 72 ec 31 3d 35 7e 98 3c
       0.25630578 -0.1326024 0.043438382 0.018614868
000320 99 7e 5e be 0c ef 06 be 06 1d 53 3e 31 95 e2 be
       -0.2172798 -0.13177127 0.2061654 -0.4425445
000330 b8 24 0c 3e fe 3c ef bc 90 51 e2 3d 1c cf 39 3d
       0.13685882 -0.029203888 0.11050713 0.04536353
000340 bc dd ff 3d f3 b6 c5 bc bd 68 4c be ad 91 4c be
       0.12493464 -0.024135089 -0.1996183 -0.19977446
000350 49 fe 07 3f 78 e7 d8 bd 55 4e 92 be 31 07 ec 3d
       0.53122383 -0.10591024 -0.28575388 0.11524809
000360 68 55 8b 3d 12 02 48 bd c6 8b d4 3e 9c 9e e7 bd
       0.06803399 -0.0488301 0.4151289 -0.11309549
000370 c4 7a e1 3d 29 50 a2 bd 29 13 a5 3d 94 15 3b 3d
       0.11009744 -0.079254456 0.08060295 0.045674875
000380 a8 43 29 3d 81 3c a7 be bd 96 25 be 0c 5a 3d bd
       0.041324288 -0.32663348 -0.16170783 -0.046228454
000390 00 7e 85 3c 00 a2 03 3b c3 94 e3 3c 59 74 35 be
       0.016295433 0.0020085573 0.027780896 -0.17720164
0003a0 8a e4 8d bd 3c 0c 56 bd 27 a9 19 3f e6 39 77 3d
       -0.06928356 -0.05225776 0.6002373 0.06035795
0003b0 00 96 0e be 09 59 c3 3e 15 88 7e 3f b1 10 20 3d
       -0.13924408 0.38153866 0.99426395 0.03907842
0003c0 bb b5 d0 3d 25 80 e1 3c e3 f3 bf bc 80 32 4b be
       0.10190912 0.027526924 -0.023431724 -0.19843483
0003d0 80 7f c6 be d0 1e 0b 3c e5 7d 1b 3c 6b 59 d4 3d
       -0.3876915 0.008491233 0.009490465 0.103686176
0003e0 23 10 14 bd 50 51 33 bd 12 dc ca 3d 6e 53 14 be
       -0.0361482 -0.043778718 0.09905256 -0.14484951
0003f0 fd 8e 7b be be 4f 29 bd d6 b0 0d 3c 55 77 1c be
       -0.24566264 -0.041335814 0.008648118 -0.15279897

main.6.bias f4 [64]
000000 39 c9 bd bd 2e 03 e7 bd 69 79 e3 3b fb 7b a0 3d
       -0.09266896 -0.11279903 0.0069419635 0.078361474
000010 a3 89 3e bd 71 a7 2a 3d e1 73 bb 3d ec 9c a4 3a
       -0.04651798 0.04166359 0.091529615 0.0012558973
000020 a6 b5 b9 bd 8f bc 58 bd 3f 16 c9 bd 81 2e f6 bd
       -0.0906785 -0.0529142 -0.09818696 -0.12020589
000030 e4 f9 04 be 35 c0 8d 3c 65 45 15 be 31 d3 d1 3c
       -0.1298595 0.017303566 -0.14577253 0.0256134
000040 40 f2 f2 bd a7 cb d0 bd 48 6b 41 3d 37 93 82 3d
       -0.11862612 -0.101950936 0.047221452 0.06375735
000050 b9 3c 28 be 9f 53 3c 3b f3 b6 f2 3d 30 98 97 bd
       -0.16429414 0.0028736365 0.11851301 -0.07402074
000060 ba 0f a8 bd 75 97 09 3d 0f 4f 16 3e 35 42 89 bd
       -0.082061246 0.033591706 0.14678596 -0.06702081
000070 4b 32 bb bd b8 3d 55 be ac be 90 3c de 07 79 bd
       -0.09140452 -0.20824325 0.017669044 -0.06079852
000080 bb c1 b1 3d f0 99 4a 3e 00 0e a0 3d 39 6b a9 bd
       0.08679529 0.19785285 0.0781517 -0.08272404
000090 50 ff 29 bb 3a b9 d7 bd 9b f2 37 bd ca 85 c1 bc
       -0.0025939532 -0.10533376 -0.0449091 -0.023623366
0000a0 f9 e8 43 3d a9 d6 4d be d0 b0 a3 3c cc 6f 10 3d
       0.047829602 -0.20101418 0.019981772 0.035262868
0000b0 f6 d8 f5 3d 91 8e 0c be 96 26 0a be e7 31 2b bd
       0.12004273 -0.1372626 -0.13491282 -0.041795637
0000c0 37 44 d6 3c d1 16 b6 3d 8d 53 15 3d 13 45 3c 3c
       0.026155574 0.08891071 0.036456633 0.011491078
0000d0 87 c4 fc bb b8 ad c2 3d 12 d8 1e 3c 10 dc b2 bd
       -0.0077138576 0.095057905 0.00969507 -0.0873338
0000e0 c5 42 3c bd 6c 9e e6 bd 25 e5 cd bd 00 f0 ec 3c
       -0.045962114 -0.11260685 -0.100534715 0.028923035
0000f0 84 bc 31 3d ae eb f5 bd 5a ff 07 be 02 47 82 bd
       0.043392673 -0.12007843 -0.13281003 -0.063612

main.8.weight f4 [64, 64]
000000 ed 7a b0 bc 30 b2 5c bc af 64 56 bd 2e ab 3b 3e
       -0.02154299 -0.013470218 -0.052342113 0.18327019
000010 5f 23 0e 3d 9b 9f 58 be b3 b4 e0 3d ab 54 d8 bd
       0.0347017 -0.21154635 0.10971966 -0.10563024
000020 e0 46 c4 3c 0a dc dd 3e d7 2b 03 bd 40 d3 a4 3d
       0.023959577 0.4333194 -0.03202423 0.08048105
000030 38 96 84 be 97 59 b3 3e 84 32 96 bd c4 0f 3e bd
       -0.25895858 0.3502929 -0.07333854 -0.046401754
000040 31 8c af bc 47 2a bf 3d 2e bb d9 bd 9f 59 7d 3d
       -0.021429153 0.09334236 -0.10631405 0.061853047
000050 6d f6 2d bd 5d eb 53 3e 8d ff a3 be 6f bf 25 bd
       -0.042471338 0.20695253 -0.32030907 -0.04046577
000060 03 e6 06 3e bf e8 b0 3d 6c 1d 2e 3e 38 2e 98 bd
       0.1317368 0.08638143 0.17003411 -0.074306905
000070 05 b9 dd bd 0f bc e4 bd dc b7 52 bd cc fa 25 3d
       -0.10826305 -0.11168682 -0.051444873 0.04052238
000080 87 a8 ab bd 70 da be 3e 68 50 65 bd 03 33 c1 3c
       -0.083817534 0.3727603 -0.055984885 0.023583895
000090 0e b3 12 be d4 cf 47 bd bb 7b 4d 3d f7 24 9b 3c
       -0.14326116 -0.048782185 0.050166827 0.018938525
0000a0 0e 0b 8f 3d ab 7e d6 3d 4f da 0b 3f c9 c3 c9 bd
       0.069845304 0.10473379 0.5462999 -0.09851796
0000b0 fe 99 57 3e 65 0a 47 bd c2 00 91 bd da b0 8f bd
       0.21054837 -0.048593897 -0.07080223 -0.07016154
0000c0 1f 5b 62 bd b2 77 24 bc 59 b1 f2 bb 7a 29 0d be
       -0.05526268 -0.010038303 -0.0074063954 -0.13785353
0000d0 ea 7d f4 bd 6b 90 1e 3e 9f b7 8b 3c a1 4d b8 bd
       -0.11938079 0.15484779 0.01705533 -0.089991815
0000e0 ad 20 9a bd 93 76 a0 bd 4b 85 df 3d 6e 64 3e 3d
       -0.07525764 -0.07835116 0.109140955 0.046482496
0000f0 cd d4 c3 3e 29 54 cf 3d 64 79 1b bd 05 0d e7 3b
       0.38248292 0.10123474 -0.037957564 0.0070511126
000100 02 f3 b7 3d e1 70 ed bc 87 3e 80 3e 12 0f bb 3d
       0.08981897 -0.028984489 0.25047705 0.09133734
000110 0a 2b f3 bc 17 64 51 be 2c 74 da 3d 72 b6 d1 3d
       -0.029683609 -0.20448337 0.10666689 0.10239877
000120 19 dc 19 3d 50 a1 00 3f 3b 6a b0 3d 20 eb a4 3d
       0.037563417 0.50246143 0.08614012 0.08052659
000130 67 83 d8 bc 47 43 e1 3e b0 41 8c 3d c3 9a f7 3c
       -0.026429845 0.4399664 0.068484664 0.030225163
000140 3a 9f 97 bd 8d e4 32 3d 58 86 0c b9 8b 6e d4 3d
       -0.07403417 0.043674994 -0.00013401487 0.10372647
000150 b2 ff 9a 3d 96 c6 83 be 22 01 bc be 95 41 92 3b
       0.07568301 -0.25737447 -0.36719614 0.0044633844
000160 5d c7 27 3e ed 6e d1 3d 5a 1c c9 3e 9a ba 0c 3e
       0.16384645 0.102262355 0.39279443 0.13743058
000170 bd e0 3d be 89 aa 66 be c2 9b 04 bd 38 60 1f 3d
       -0.18542762 -0.22525991 -0.032375105 0.03891012
000180 55 64 1c be 4d 97 e3 3e d9 e9 24 bd bd 4c 83 ba
       -0.15272649 0.4445137 -0.040262077 -0.0010017377
000190 ec 26 ac be 58 82 6e bd 25 2d cf 3c 35 70 a1 bc
       -0.33623445 -0.058229774 0.025290081 -0.019706825
0001a0 12 9e 27 bd 32 b2 26 bd fd 1a 1f 3f 9c a6 e4 3c
       -0.040922232 -0.040697284 0.62150556 0.027911477
0001b0 a3 a9 e4 3e 85 55 23 be e4 2e 69 3d d1 7a 35 be
       0.44660673 -0.15950592 0.056929484 -0.17722632
0001c0 30 09 ea bb d4 55 1c be a9 36 3f bd 36 22 a9 3c
       -0.0071422085 -0.15267116 -0.046682987 0.020646196
0001d0 89 e6 94 bd 4f ae 15 3e 06 f5 d6 bd 43 c6 0c 3e
       -0.072705336 0.14617275 -0.10495953 0.13747506
0001e0 64 09 58 be 2c c1 e3 bd cc 3e bb bd f6 54 9e bc
       -0.21097332 -0.11120829 -0.09142837 -0.019327622
0001f0 35 3e b3 3e d0 d9 84 3c 57 9e 96 3b 43 ef 79 bd
       0.35008398 0.016217142 0.0045965123 -0.061019193
000200 9a 4c 82 3d 5f 87 07 be 6b b1 51 3d 1f 30 59 3d
       0.06362267 -0.13235234 0.05119459 0.053024407
000210 ea d6 db bd e0 f8 c2 3d 33 13 ed bc 58 34 4b 3a
       -0.10734351 0.095201254 -0.028939819 0.0007751635
000220 20 68 0b bd 00 61 d2 3c 50 e6 4e 3d c2 d2 e6 3d
       -0.03403485 0.025681019 0.050512612 0.112706676
000230 21 3e b0 3d be 4d 81 bd 72 c8 f3 3d f0 c5 91 bd
       0.086056 -0.06313656 0.11903466 -0.07117832
000240 50 fa 93 3c 74 5e 26 3d 6a a2 91 bc 3a db 80 3d
       0.018063694 0.04061742 -0.01777764 0.06291814
000250 18 e9 9a bd 63 57 9a 3d eb 3c 6e 3d 17 3d 1e bd
       -0.0756399 0.07536199 0.058163565 -0.03863248
000260 8e 50 f8 bd bd cf 06 3c be ba b4 bd 92 c0 9b 3d
       -0.121247396 0.00822824 -0.08824681 0.07605089
000270 d9 9a 00 be f2 ee ca bd c4 bc 94 bd 5c bd d7 bd
       -0.1255907 -0.099088565 -0.07262567 -0.10534164
000280 83 9a be 3d 40 28 b2 3b 69 24 e9 3c 04 6e d9 3d
       0.093068145 0.005436927 0.028459745 0.10616687
000290 1c 97 b9 3d 20 d3 00 3d bc 6e 0f bd b0 35 7b 3c
       0.09062025 0.031451344 -0.035017714 0.015332624
0002a0 0e 6f ae bd 60 98 28 bd 3c 38 3d 3d 7d 0c ce 3d
       -0.08517276 -0.04116094 0.046196207 0.10060976
0002b0 a8 1e e4 3d 4c 66 ac bd fe 5e 82 bd 8a ce 8c bd
       0.1113866 -0.08417949 -0.063657746 -0.06875332
0002c0 06 2f ae 3d 6e 0b 7d bc 08 e3 bd 3d df 49 9c bd
       0.08505063 -0.01544462 0.092718184 -0.07631277
0002d0 93 03 5a bd 17 71 a2 3d 30 9d 8c 3c c0 bc 3d bd
       -0.053226065 0.079317264 0.017164797 -0.046322584
0002e0 b1 8a b8 bd e0 ca 26 3c 70 47 17 bc 3c b3 cc 3c
       -0.09010828 0.010180205 -0.009233341 0.02498781
0002f0 70 ef 0c bc 38 f5 de bd 40 10 81 bd b0 b1 6a bd
       -0.008602008 -0.108866155 -0.063019276 -0.057298362
000300 c8 af d3 3d ea 19 55 be 48 6c 13 3d 2c 1f a9 be
       0.10336262 -0.20810667 0.035991937 -0.33031595
000310 f4 ed 2c be b8 a8 61 be 8e c3 cc be 3e f8 d0 be
       -0.16887647 -0.22037017 -0.39992946 -0.40814394
000320 90 77 d2 3c b5 37 8c 3e 4c e9 3b bd f0 d8 d5 3d
       0.025691777 0.2738625 -0.045876786 0.10441768
000330 95 77 00 bf d5 82 19 3e 14 ee 8e 3d a3 e4 cc be
       -0.5018247 0.14991315 0.069790035 -0.40018186
000340 39 92 9a 3d bf 3e a6 3d 7d 21 66 be 5e f1 b6 bd
       0.07547421 0.081174366 -0.22473712 -0.08932756
000350 90 7a 3c bc 94 3a 36 bd 66 dd 48 be e0 65 8f bd
       -0.011503831 -0.04448946 -0.19615707 -0.07001853
000360 e0 d9 34 3d b5 4e 9b bd 47 7a 06 3e 09 0b 00 3d
       0.044153094 -0.075833715 0.13132583 0.031260524
000370 7f 4d b9 be e3 f6 24 be 31 82 6c bd 10 3a 91 bd
       -0.36191937 -0.16109805 -0.057741348 -0.07091153
000380 ef c7 b7 be 3f a4 99 3e 7b 29 c0 be 0b 9c 80 bd
       -0.35894725 0.30008122 -0.37531647 -0.06279763
000390 80 fd 1b be 71 f2 b3 3d 66 13 83 3e 62 60 a8 3b
       -0.15233421 0.087864764 0.25600737 0.005138443
0003a0 05 c5 5a bd 1c 85 44 bd 0a b5 61 3e 72 c2 ee bd
       -0.05341055 -0.047978505 0.22041717 -0.11658181
0003b0 06 81 d6 3d 68 6d 39 3d 3a 81 a5 3d eb e1 a2 be
       0.10473828 0.045270354 0.08081289 -0.31812987
0003c0 2a ee 6a 3d 36 97 32 be 4d 2d 8e be 74 f8 b0 be
       0.057356037 -0.17440495 -0.27768937 -0.34564555
0003d0 a0 3e ea be f9 f3 30 3d 5c 16 8f 3d 5c 9f 29 3d
       -0.45750904 0.04320142 0.069866866 0.041411743
0003e0 9b 13 c8 be 8d 4b 85 3d ad 48 b0 bd 24 18 90 be
       -0.39077458 0.06508551 -0.08607612 -0.28143418
0003f0 bf 01 26 bc a5 0e ed bd 46 7a b3 bd 91 b2 0d 3d
       -0.010132252 -0.11575059 -0.08763556 0.034594122

main.8.bias f4 [64]
000000 87 f6 6e 3e ff 85 91 3e 38 51 0c be c2 3d b5 3d
       0.2333623 0.28422543 -0.13702857 0.0884967
000010 a3 57 26 bd 19 e2 7c 3e d0 c7 6d 3d 4b d8 7a 3d
       -0.04061092 0.24695624 0.058051884 0.06124143
000020 d8 f8 7a 3d dc ff d9 3d bc 91 95 3c 20 33 99 bd
       0.061272472 0.106445044 0.018257968 -0.074804544
000030 f2 25 fc 3c 14 07 91 bd d0 52 8c 3e ba 94 fd bd
       0.030779812 -0.07081428 0.2740693 -0.12381883
000040 a1 7f 5a bc a7 b6 22 3e cb 97 91 3e 69 c7 c0 3c
       -0.013336093 0.15889989 0.2843612 0.023532586
000050 b6 bc 05 be 15 79 3d 3e c4 eb d0 3c 8a 00 88 3d
       -0.13060269 0.1850322 0.025503047 0.06640728
000060 03 ce 72 3a eb 47 fd bd 76 a9 c9 3d 4c eb 17 bd
       0.00092622655 -0.12367233 0.09846775 -0.03708963
000070 98 c7 5c bd ef 61 42 3e 1a 38 60 3e 64 06 fb 3c
       -0.053901285 0.18982671 0.21896401 0.030642696
000080 7e f9 14 3e 69 0e 54 bc 60 23 8f 3d ca 44 80 3d
       0.14548299 -0.012942889 0.06989169 0.062631205
000090 27 43 96 3c f4 a6 62 3d f4 79 86 3d 5e 00 fd 3c
       0.018342568 0.055335 0.065662295 0.030883964
0000a0 b6 dd e7 bd 52 f6 42 3a 2d 78 a7 bd dc 69 72 bd
       -0.11321585 0.0007437217 -0.081772186 -0.059182987
0000b0 02 f3 29 3e 47 d3 a6 3c 2d fb 50 39 f4 d5 9d bd
       0.16596606 0.020364417 0.00019929996 -0.07706824
0000c0 2c bf 55 bd ec 25 10 be 34 fa b2 3d f8 3e 38 3e
       -0.05218427 -0.14076966 0.08739129 0.1799277
0000d0 e0 d6 16 3d ee b7 53 bc 07 b2 f5 bc aa c5 bd bc
       0.036826015 -0.01292227 -0.029992117 -0.023165543
0000e0 ba 07 c9 3d 33 11 47 3c a4 85 86 3e f7 56 cf bd
       0.09815927 0.012150097 0.26273835 -0.10124009
0000f0 fa 70 08 be f8 e4 4a be 1f 79 13 bd a2 d8 ac ba
       -0.13324347 -0.19813907 -0.036004182 -0.001318712

main.10.weight f4 [1, 64]
000000 b5 c4 b8 3e 4c 33 d4 3e 02 d9 9b 3d 5d 05 03 3f
       0.36087576 0.41445386 0.0760975 0.5118006
000010 16 5e 4d be 82 24 5b 3e 1e 1e 05 be c6 88 53 be
       -0.20055422 0.21400645 -0.1299977 -0.20657644
000020 f2 3f 50 be 73 19 41 be 70 46 2f be 8c c5 80 be
       -0.20336893 -0.18857364 -0.17116714 -0.25150716
000030 ab 97 c9 3d 4a 71 dd 3d 71 13 99 3e cc a5 16 3d
       0.098433815 0.10812624 0.29897645 0.03677921
000040 c4 87 3e 3a 1c 90 41 3e d0 53 cc 3e fa b1 3e be
       0.00072681555 0.1890263 0.39907694 -0.1862258
000050 0a ef 16 3d 32 f8 99 3e 73 bf 3a be cb 53 17 be
       0.03684906 0.3007217 -0.18237095 -0.14778058
000060 72 80 df bd 7b ed d2 3d 41 9a 34 3f 1a 8c da 3a
       -0.10913171 0.10299202 0.7054787 0.0016673834
000070 8e 8a f6 3b c4 54 a1 3e ce 9d 9b 3e 84 c5 27 3f
       0.007523841 0.31509984 0.30393833 0.6553576
000080 18 1f d6 3e a6 0a d5 bd 5f ee 32 be 2f 22 3d be
       0.41820598 -0.10402422 -0.17473744 -0.18470071
000090 75 fe 26 be 7b d9 1f be f2 3a 17 be a5 41 1a 3f
       -0.16308005 -0.15610306 -0.1476858 0.60256416
0000a0 df 46 37 3d e6 42 4e bd 80 92 4b 3d 76 b7 94 bd
       0.044745322 -0.050356768 0.04970026 -0.07261555
0000b0 4d 88 25 3f 3b 2b 0d be cd 76 47 be 8f 38 0f 3b
       0.64661103 -0.13786022 -0.19478913 0.002185378
0000c0 b5 d7 39 3f ff 0a 57 3c 13 a0 5f 3f d7 a8 71 3e
       0.7259477 0.01312518 0.8735363 0.23599564
0000d0 0e ca 0a be 7f 12 28 be 3d 01 59 be ac 2e 4b be
       -0.1355364 -0.16413306 -0.21191879 -0.19842023
0000e0 e8 1e e3 3e fd 9f 4d be 93 e2 b5 3e 37 e9 ae 3d
       0.44359517 -0.20080562 0.35524425 0.08540576
0000f0 53 e9 0c 3b 42 97 b0 3c f3 1e 2c 3f 24 e6 13 be
       0.0021501377 0.0215565 0.67234725 -0.1444326
